{
	"format": "graph-model",
	"generatedBy": "2.3.0",
	"convertedBy": "TensorFlow.js Converter v3.7.0",
	"signature": {
		"inputs": {
			"input.1": {
				"name": "input_1:0",
				"dtype": "DT_FLOAT",
				"tensorShape": {
					"dim": [{
						"size": "1"
					}, {
						"size": "3"
					}, {
						"size": "320"
					}, {
						"size": "320"
					}]
				}
			}
		},
		"outputs": {
			"output_2": {
				"name": "Identity_2:0",
				"dtype": "DT_FLOAT",
				"tensorShape": {
					"dim": [{
						"size": "1"
					}, {
						"size": "100"
					}, {
						"size": "1"
					}]
				}
			},
			"output_1": {
				"name": "Identity_1:0",
				"dtype": "DT_FLOAT",
				"tensorShape": {
					"dim": [{
						"size": "1"
					}, {
						"size": "400"
					}, {
						"size": "1"
					}]
				}
			},
			"output_5": {
				"name": "Identity_5:0",
				"dtype": "DT_FLOAT",
				"tensorShape": {
					"dim": [{
						"size": "1"
					}, {
						"size": "100"
					}, {
						"size": "32"
					}]
				}
			},
			"output_4": {
				"name": "Identity_4:0",
				"dtype": "DT_FLOAT",
				"tensorShape": {
					"dim": [{
						"size": "1"
					}, {
						"size": "400"
					}, {
						"size": "32"
					}]
				}
			},
			"output_0": {
				"name": "Identity:0",
				"dtype": "DT_FLOAT",
				"tensorShape": {
					"dim": [{
						"size": "1"
					}, {
						"size": "1600"
					}, {
						"size": "1"
					}]
				}
			},
			"output_3": {
				"name": "Identity_3:0",
				"dtype": "DT_FLOAT",
				"tensorShape": {
					"dim": [{
						"size": "1"
					}, {
						"size": "1600"
					}, {
						"size": "32"
					}]
				}
			}
		}
	},
	"modelTopology": {
		"node": [{
			"name": "PartitionedCall/Where_32",
			"op": "Const",
			"attr": {
				"dtype": {
					"type": "DT_INT64"
				},
				"value": {
					"tensor": {
						"dtype": "DT_INT64",
						"tensorShape": {
							"dim": [{}, {
								"size": "1"
							}]
						}
					}
				}
			}
		}, {
			"name": "PartitionedCall/Cast_40",
			"op": "Const",
			"attr": {
				"value": {
					"tensor": {
						"dtype": "DT_INT64",
						"tensorShape": {
							"dim": [{
								"size": "1"
							}]
						}
					}
				},
				"dtype": {
					"type": "DT_INT64"
				}
			}
		}, {
			"name": "PartitionedCall/GatherV2_32",
			"op": "Const",
			"attr": {
				"dtype": {
					"type": "DT_INT64"
				},
				"value": {
					"tensor": {
						"dtype": "DT_INT64",
						"tensorShape": {
							"dim": [{}]
						}
					}
				}
			}
		}, {
			"name": "PartitionedCall/zeros_32",
			"op": "Const",
			"attr": {
				"value": {
					"tensor": {
						"dtype": "DT_INT64",
						"tensorShape": {}
					}
				},
				"dtype": {
					"type": "DT_INT64"
				}
			}
		}, {
			"name": "PartitionedCall/onnx_tf_prefix_Transpose_301/perm",
			"op": "Const",
			"attr": {
				"dtype": {
					"type": "DT_INT32"
				},
				"value": {
					"tensor": {
						"dtype": "DT_INT32",
						"tensorShape": {
							"dim": [{
								"size": "3"
							}]
						}
					}
				}
			}
		}, {
			"name": "PartitionedCall/Where_34",
			"op": "Const",
			"attr": {
				"dtype": {
					"type": "DT_INT64"
				},
				"value": {
					"tensor": {
						"dtype": "DT_INT64",
						"tensorShape": {
							"dim": [{}, {
								"size": "1"
							}]
						}
					}
				}
			}
		}, {
			"name": "PartitionedCall/Cast_42",
			"op": "Const",
			"attr": {
				"value": {
					"tensor": {
						"dtype": "DT_INT64",
						"tensorShape": {
							"dim": [{
								"size": "1"
							}]
						}
					}
				},
				"dtype": {
					"type": "DT_INT64"
				}
			}
		}, {
			"name": "PartitionedCall/GatherV2_34",
			"op": "Const",
			"attr": {
				"value": {
					"tensor": {
						"dtype": "DT_INT64",
						"tensorShape": {
							"dim": [{}]
						}
					}
				},
				"dtype": {
					"type": "DT_INT64"
				}
			}
		}, {
			"name": "PartitionedCall/zeros_34",
			"op": "Const",
			"attr": {
				"dtype": {
					"type": "DT_INT64"
				},
				"value": {
					"tensor": {
						"dtype": "DT_INT64",
						"tensorShape": {}
					}
				}
			}
		}, {
			"name": "PartitionedCall/onnx_tf_prefix_Transpose_318/perm",
			"op": "Const",
			"attr": {
				"dtype": {
					"type": "DT_INT32"
				},
				"value": {
					"tensor": {
						"dtype": "DT_INT32",
						"tensorShape": {
							"dim": [{
								"size": "3"
							}]
						}
					}
				}
			}
		}, {
			"name": "unknown_135",
			"op": "Const",
			"attr": {
				"dtype": {
					"type": "DT_INT64"
				},
				"value": {
					"tensor": {
						"dtype": "DT_INT64",
						"tensorShape": {
							"dim": [{
								"size": "3"
							}]
						}
					}
				}
			}
		}, {
			"name": "PartitionedCall/Where_36",
			"op": "Const",
			"attr": {
				"dtype": {
					"type": "DT_INT64"
				},
				"value": {
					"tensor": {
						"dtype": "DT_INT64",
						"tensorShape": {
							"dim": [{}, {
								"size": "1"
							}]
						}
					}
				}
			}
		}, {
			"name": "PartitionedCall/Cast_44",
			"op": "Const",
			"attr": {
				"dtype": {
					"type": "DT_INT64"
				},
				"value": {
					"tensor": {
						"dtype": "DT_INT64",
						"tensorShape": {
							"dim": [{
								"size": "1"
							}]
						}
					}
				}
			}
		}, {
			"name": "PartitionedCall/GatherV2_36",
			"op": "Const",
			"attr": {
				"dtype": {
					"type": "DT_INT64"
				},
				"value": {
					"tensor": {
						"dtype": "DT_INT64",
						"tensorShape": {
							"dim": [{}]
						}
					}
				}
			}
		}, {
			"name": "PartitionedCall/zeros_36",
			"op": "Const",
			"attr": {
				"value": {
					"tensor": {
						"dtype": "DT_INT64",
						"tensorShape": {}
					}
				},
				"dtype": {
					"type": "DT_INT64"
				}
			}
		}, {
			"name": "PartitionedCall/onnx_tf_prefix_Transpose_335/perm",
			"op": "Const",
			"attr": {
				"value": {
					"tensor": {
						"dtype": "DT_INT32",
						"tensorShape": {
							"dim": [{
								"size": "3"
							}]
						}
					}
				},
				"dtype": {
					"type": "DT_INT32"
				}
			}
		}, {
			"name": "ConstantFolding/PartitionedCall/split_80-folded-0",
			"op": "Const",
			"attr": {
				"value": {
					"tensor": {
						"dtype": "DT_FLOAT",
						"tensorShape": {
							"dim": [{
								"size": "3"
							}, {
								"size": "3"
							}, {
								"size": "1"
							}, {
								"size": "1"
							}]
						}
					}
				},
				"dtype": {
					"type": "DT_FLOAT"
				}
			}
		}, {
			"name": "ConstantFolding/PartitionedCall/split_80-folded-1",
			"op": "Const",
			"attr": {
				"dtype": {
					"type": "DT_FLOAT"
				},
				"value": {
					"tensor": {
						"dtype": "DT_FLOAT",
						"tensorShape": {
							"dim": [{
								"size": "3"
							}, {
								"size": "3"
							}, {
								"size": "1"
							}, {
								"size": "1"
							}]
						}
					}
				}
			}
		}, {
			"name": "ConstantFolding/PartitionedCall/split_80-folded-2",
			"op": "Const",
			"attr": {
				"dtype": {
					"type": "DT_FLOAT"
				},
				"value": {
					"tensor": {
						"dtype": "DT_FLOAT",
						"tensorShape": {
							"dim": [{
								"size": "3"
							}, {
								"size": "3"
							}, {
								"size": "1"
							}, {
								"size": "1"
							}]
						}
					}
				}
			}
		}, {
			"name": "ConstantFolding/PartitionedCall/split_80-folded-3",
			"op": "Const",
			"attr": {
				"value": {
					"tensor": {
						"dtype": "DT_FLOAT",
						"tensorShape": {
							"dim": [{
								"size": "3"
							}, {
								"size": "3"
							}, {
								"size": "1"
							}, {
								"size": "1"
							}]
						}
					}
				},
				"dtype": {
					"type": "DT_FLOAT"
				}
			}
		}, {
			"name": "ConstantFolding/PartitionedCall/split_80-folded-4",
			"op": "Const",
			"attr": {
				"dtype": {
					"type": "DT_FLOAT"
				},
				"value": {
					"tensor": {
						"dtype": "DT_FLOAT",
						"tensorShape": {
							"dim": [{
								"size": "3"
							}, {
								"size": "3"
							}, {
								"size": "1"
							}, {
								"size": "1"
							}]
						}
					}
				}
			}
		}, {
			"name": "ConstantFolding/PartitionedCall/split_80-folded-5",
			"op": "Const",
			"attr": {
				"value": {
					"tensor": {
						"dtype": "DT_FLOAT",
						"tensorShape": {
							"dim": [{
								"size": "3"
							}, {
								"size": "3"
							}, {
								"size": "1"
							}, {
								"size": "1"
							}]
						}
					}
				},
				"dtype": {
					"type": "DT_FLOAT"
				}
			}
		}, {
			"name": "ConstantFolding/PartitionedCall/split_80-folded-6",
			"op": "Const",
			"attr": {
				"value": {
					"tensor": {
						"dtype": "DT_FLOAT",
						"tensorShape": {
							"dim": [{
								"size": "3"
							}, {
								"size": "3"
							}, {
								"size": "1"
							}, {
								"size": "1"
							}]
						}
					}
				},
				"dtype": {
					"type": "DT_FLOAT"
				}
			}
		}, {
			"name": "ConstantFolding/PartitionedCall/split_80-folded-7",
			"op": "Const",
			"attr": {
				"dtype": {
					"type": "DT_FLOAT"
				},
				"value": {
					"tensor": {
						"dtype": "DT_FLOAT",
						"tensorShape": {
							"dim": [{
								"size": "3"
							}, {
								"size": "3"
							}, {
								"size": "1"
							}, {
								"size": "1"
							}]
						}
					}
				}
			}
		}, {
			"name": "ConstantFolding/PartitionedCall/split_80-folded-8",
			"op": "Const",
			"attr": {
				"dtype": {
					"type": "DT_FLOAT"
				},
				"value": {
					"tensor": {
						"dtype": "DT_FLOAT",
						"tensorShape": {
							"dim": [{
								"size": "3"
							}, {
								"size": "3"
							}, {
								"size": "1"
							}, {
								"size": "1"
							}]
						}
					}
				}
			}
		}, {
			"name": "ConstantFolding/PartitionedCall/split_80-folded-9",
			"op": "Const",
			"attr": {
				"value": {
					"tensor": {
						"dtype": "DT_FLOAT",
						"tensorShape": {
							"dim": [{
								"size": "3"
							}, {
								"size": "3"
							}, {
								"size": "1"
							}, {
								"size": "1"
							}]
						}
					}
				},
				"dtype": {
					"type": "DT_FLOAT"
				}
			}
		}, {
			"name": "ConstantFolding/PartitionedCall/split_80-folded-10",
			"op": "Const",
			"attr": {
				"value": {
					"tensor": {
						"dtype": "DT_FLOAT",
						"tensorShape": {
							"dim": [{
								"size": "3"
							}, {
								"size": "3"
							}, {
								"size": "1"
							}, {
								"size": "1"
							}]
						}
					}
				},
				"dtype": {
					"type": "DT_FLOAT"
				}
			}
		}, {
			"name": "ConstantFolding/PartitionedCall/split_80-folded-11",
			"op": "Const",
			"attr": {
				"dtype": {
					"type": "DT_FLOAT"
				},
				"value": {
					"tensor": {
						"dtype": "DT_FLOAT",
						"tensorShape": {
							"dim": [{
								"size": "3"
							}, {
								"size": "3"
							}, {
								"size": "1"
							}, {
								"size": "1"
							}]
						}
					}
				}
			}
		}, {
			"name": "ConstantFolding/PartitionedCall/split_80-folded-12",
			"op": "Const",
			"attr": {
				"dtype": {
					"type": "DT_FLOAT"
				},
				"value": {
					"tensor": {
						"dtype": "DT_FLOAT",
						"tensorShape": {
							"dim": [{
								"size": "3"
							}, {
								"size": "3"
							}, {
								"size": "1"
							}, {
								"size": "1"
							}]
						}
					}
				}
			}
		}, {
			"name": "ConstantFolding/PartitionedCall/split_80-folded-13",
			"op": "Const",
			"attr": {
				"dtype": {
					"type": "DT_FLOAT"
				},
				"value": {
					"tensor": {
						"dtype": "DT_FLOAT",
						"tensorShape": {
							"dim": [{
								"size": "3"
							}, {
								"size": "3"
							}, {
								"size": "1"
							}, {
								"size": "1"
							}]
						}
					}
				}
			}
		}, {
			"name": "ConstantFolding/PartitionedCall/split_80-folded-14",
			"op": "Const",
			"attr": {
				"value": {
					"tensor": {
						"dtype": "DT_FLOAT",
						"tensorShape": {
							"dim": [{
								"size": "3"
							}, {
								"size": "3"
							}, {
								"size": "1"
							}, {
								"size": "1"
							}]
						}
					}
				},
				"dtype": {
					"type": "DT_FLOAT"
				}
			}
		}, {
			"name": "ConstantFolding/PartitionedCall/split_80-folded-15",
			"op": "Const",
			"attr": {
				"dtype": {
					"type": "DT_FLOAT"
				},
				"value": {
					"tensor": {
						"dtype": "DT_FLOAT",
						"tensorShape": {
							"dim": [{
								"size": "3"
							}, {
								"size": "3"
							}, {
								"size": "1"
							}, {
								"size": "1"
							}]
						}
					}
				}
			}
		}, {
			"name": "ConstantFolding/PartitionedCall/split_80-folded-16",
			"op": "Const",
			"attr": {
				"dtype": {
					"type": "DT_FLOAT"
				},
				"value": {
					"tensor": {
						"dtype": "DT_FLOAT",
						"tensorShape": {
							"dim": [{
								"size": "3"
							}, {
								"size": "3"
							}, {
								"size": "1"
							}, {
								"size": "1"
							}]
						}
					}
				}
			}
		}, {
			"name": "ConstantFolding/PartitionedCall/split_80-folded-17",
			"op": "Const",
			"attr": {
				"value": {
					"tensor": {
						"dtype": "DT_FLOAT",
						"tensorShape": {
							"dim": [{
								"size": "3"
							}, {
								"size": "3"
							}, {
								"size": "1"
							}, {
								"size": "1"
							}]
						}
					}
				},
				"dtype": {
					"type": "DT_FLOAT"
				}
			}
		}, {
			"name": "ConstantFolding/PartitionedCall/split_80-folded-18",
			"op": "Const",
			"attr": {
				"value": {
					"tensor": {
						"dtype": "DT_FLOAT",
						"tensorShape": {
							"dim": [{
								"size": "3"
							}, {
								"size": "3"
							}, {
								"size": "1"
							}, {
								"size": "1"
							}]
						}
					}
				},
				"dtype": {
					"type": "DT_FLOAT"
				}
			}
		}, {
			"name": "ConstantFolding/PartitionedCall/split_80-folded-19",
			"op": "Const",
			"attr": {
				"dtype": {
					"type": "DT_FLOAT"
				},
				"value": {
					"tensor": {
						"dtype": "DT_FLOAT",
						"tensorShape": {
							"dim": [{
								"size": "3"
							}, {
								"size": "3"
							}, {
								"size": "1"
							}, {
								"size": "1"
							}]
						}
					}
				}
			}
		}, {
			"name": "ConstantFolding/PartitionedCall/split_80-folded-20",
			"op": "Const",
			"attr": {
				"dtype": {
					"type": "DT_FLOAT"
				},
				"value": {
					"tensor": {
						"dtype": "DT_FLOAT",
						"tensorShape": {
							"dim": [{
								"size": "3"
							}, {
								"size": "3"
							}, {
								"size": "1"
							}, {
								"size": "1"
							}]
						}
					}
				}
			}
		}, {
			"name": "ConstantFolding/PartitionedCall/split_80-folded-21",
			"op": "Const",
			"attr": {
				"value": {
					"tensor": {
						"dtype": "DT_FLOAT",
						"tensorShape": {
							"dim": [{
								"size": "3"
							}, {
								"size": "3"
							}, {
								"size": "1"
							}, {
								"size": "1"
							}]
						}
					}
				},
				"dtype": {
					"type": "DT_FLOAT"
				}
			}
		}, {
			"name": "ConstantFolding/PartitionedCall/split_80-folded-22",
			"op": "Const",
			"attr": {
				"dtype": {
					"type": "DT_FLOAT"
				},
				"value": {
					"tensor": {
						"dtype": "DT_FLOAT",
						"tensorShape": {
							"dim": [{
								"size": "3"
							}, {
								"size": "3"
							}, {
								"size": "1"
							}, {
								"size": "1"
							}]
						}
					}
				}
			}
		}, {
			"name": "ConstantFolding/PartitionedCall/split_80-folded-23",
			"op": "Const",
			"attr": {
				"value": {
					"tensor": {
						"dtype": "DT_FLOAT",
						"tensorShape": {
							"dim": [{
								"size": "3"
							}, {
								"size": "3"
							}, {
								"size": "1"
							}, {
								"size": "1"
							}]
						}
					}
				},
				"dtype": {
					"type": "DT_FLOAT"
				}
			}
		}, {
			"name": "ConstantFolding/PartitionedCall/split_80-folded-24",
			"op": "Const",
			"attr": {
				"dtype": {
					"type": "DT_FLOAT"
				},
				"value": {
					"tensor": {
						"dtype": "DT_FLOAT",
						"tensorShape": {
							"dim": [{
								"size": "3"
							}, {
								"size": "3"
							}, {
								"size": "1"
							}, {
								"size": "1"
							}]
						}
					}
				}
			}
		}, {
			"name": "ConstantFolding/PartitionedCall/split_80-folded-25",
			"op": "Const",
			"attr": {
				"value": {
					"tensor": {
						"dtype": "DT_FLOAT",
						"tensorShape": {
							"dim": [{
								"size": "3"
							}, {
								"size": "3"
							}, {
								"size": "1"
							}, {
								"size": "1"
							}]
						}
					}
				},
				"dtype": {
					"type": "DT_FLOAT"
				}
			}
		}, {
			"name": "ConstantFolding/PartitionedCall/split_80-folded-26",
			"op": "Const",
			"attr": {
				"value": {
					"tensor": {
						"dtype": "DT_FLOAT",
						"tensorShape": {
							"dim": [{
								"size": "3"
							}, {
								"size": "3"
							}, {
								"size": "1"
							}, {
								"size": "1"
							}]
						}
					}
				},
				"dtype": {
					"type": "DT_FLOAT"
				}
			}
		}, {
			"name": "ConstantFolding/PartitionedCall/split_80-folded-27",
			"op": "Const",
			"attr": {
				"dtype": {
					"type": "DT_FLOAT"
				},
				"value": {
					"tensor": {
						"dtype": "DT_FLOAT",
						"tensorShape": {
							"dim": [{
								"size": "3"
							}, {
								"size": "3"
							}, {
								"size": "1"
							}, {
								"size": "1"
							}]
						}
					}
				}
			}
		}, {
			"name": "ConstantFolding/PartitionedCall/split_80-folded-28",
			"op": "Const",
			"attr": {
				"value": {
					"tensor": {
						"dtype": "DT_FLOAT",
						"tensorShape": {
							"dim": [{
								"size": "3"
							}, {
								"size": "3"
							}, {
								"size": "1"
							}, {
								"size": "1"
							}]
						}
					}
				},
				"dtype": {
					"type": "DT_FLOAT"
				}
			}
		}, {
			"name": "ConstantFolding/PartitionedCall/split_80-folded-29",
			"op": "Const",
			"attr": {
				"value": {
					"tensor": {
						"dtype": "DT_FLOAT",
						"tensorShape": {
							"dim": [{
								"size": "3"
							}, {
								"size": "3"
							}, {
								"size": "1"
							}, {
								"size": "1"
							}]
						}
					}
				},
				"dtype": {
					"type": "DT_FLOAT"
				}
			}
		}, {
			"name": "ConstantFolding/PartitionedCall/split_80-folded-30",
			"op": "Const",
			"attr": {
				"dtype": {
					"type": "DT_FLOAT"
				},
				"value": {
					"tensor": {
						"dtype": "DT_FLOAT",
						"tensorShape": {
							"dim": [{
								"size": "3"
							}, {
								"size": "3"
							}, {
								"size": "1"
							}, {
								"size": "1"
							}]
						}
					}
				}
			}
		}, {
			"name": "ConstantFolding/PartitionedCall/split_80-folded-31",
			"op": "Const",
			"attr": {
				"value": {
					"tensor": {
						"dtype": "DT_FLOAT",
						"tensorShape": {
							"dim": [{
								"size": "3"
							}, {
								"size": "3"
							}, {
								"size": "1"
							}, {
								"size": "1"
							}]
						}
					}
				},
				"dtype": {
					"type": "DT_FLOAT"
				}
			}
		}, {
			"name": "ConstantFolding/PartitionedCall/split_80-folded-32",
			"op": "Const",
			"attr": {
				"value": {
					"tensor": {
						"dtype": "DT_FLOAT",
						"tensorShape": {
							"dim": [{
								"size": "3"
							}, {
								"size": "3"
							}, {
								"size": "1"
							}, {
								"size": "1"
							}]
						}
					}
				},
				"dtype": {
					"type": "DT_FLOAT"
				}
			}
		}, {
			"name": "ConstantFolding/PartitionedCall/split_80-folded-33",
			"op": "Const",
			"attr": {
				"value": {
					"tensor": {
						"dtype": "DT_FLOAT",
						"tensorShape": {
							"dim": [{
								"size": "3"
							}, {
								"size": "3"
							}, {
								"size": "1"
							}, {
								"size": "1"
							}]
						}
					}
				},
				"dtype": {
					"type": "DT_FLOAT"
				}
			}
		}, {
			"name": "ConstantFolding/PartitionedCall/split_80-folded-34",
			"op": "Const",
			"attr": {
				"value": {
					"tensor": {
						"dtype": "DT_FLOAT",
						"tensorShape": {
							"dim": [{
								"size": "3"
							}, {
								"size": "3"
							}, {
								"size": "1"
							}, {
								"size": "1"
							}]
						}
					}
				},
				"dtype": {
					"type": "DT_FLOAT"
				}
			}
		}, {
			"name": "ConstantFolding/PartitionedCall/split_80-folded-35",
			"op": "Const",
			"attr": {
				"value": {
					"tensor": {
						"dtype": "DT_FLOAT",
						"tensorShape": {
							"dim": [{
								"size": "3"
							}, {
								"size": "3"
							}, {
								"size": "1"
							}, {
								"size": "1"
							}]
						}
					}
				},
				"dtype": {
					"type": "DT_FLOAT"
				}
			}
		}, {
			"name": "ConstantFolding/PartitionedCall/split_80-folded-36",
			"op": "Const",
			"attr": {
				"value": {
					"tensor": {
						"dtype": "DT_FLOAT",
						"tensorShape": {
							"dim": [{
								"size": "3"
							}, {
								"size": "3"
							}, {
								"size": "1"
							}, {
								"size": "1"
							}]
						}
					}
				},
				"dtype": {
					"type": "DT_FLOAT"
				}
			}
		}, {
			"name": "ConstantFolding/PartitionedCall/split_80-folded-37",
			"op": "Const",
			"attr": {
				"value": {
					"tensor": {
						"dtype": "DT_FLOAT",
						"tensorShape": {
							"dim": [{
								"size": "3"
							}, {
								"size": "3"
							}, {
								"size": "1"
							}, {
								"size": "1"
							}]
						}
					}
				},
				"dtype": {
					"type": "DT_FLOAT"
				}
			}
		}, {
			"name": "ConstantFolding/PartitionedCall/split_80-folded-38",
			"op": "Const",
			"attr": {
				"value": {
					"tensor": {
						"dtype": "DT_FLOAT",
						"tensorShape": {
							"dim": [{
								"size": "3"
							}, {
								"size": "3"
							}, {
								"size": "1"
							}, {
								"size": "1"
							}]
						}
					}
				},
				"dtype": {
					"type": "DT_FLOAT"
				}
			}
		}, {
			"name": "ConstantFolding/PartitionedCall/split_80-folded-39",
			"op": "Const",
			"attr": {
				"dtype": {
					"type": "DT_FLOAT"
				},
				"value": {
					"tensor": {
						"dtype": "DT_FLOAT",
						"tensorShape": {
							"dim": [{
								"size": "3"
							}, {
								"size": "3"
							}, {
								"size": "1"
							}, {
								"size": "1"
							}]
						}
					}
				}
			}
		}, {
			"name": "ConstantFolding/PartitionedCall/split_80-folded-40",
			"op": "Const",
			"attr": {
				"value": {
					"tensor": {
						"dtype": "DT_FLOAT",
						"tensorShape": {
							"dim": [{
								"size": "3"
							}, {
								"size": "3"
							}, {
								"size": "1"
							}, {
								"size": "1"
							}]
						}
					}
				},
				"dtype": {
					"type": "DT_FLOAT"
				}
			}
		}, {
			"name": "ConstantFolding/PartitionedCall/split_80-folded-41",
			"op": "Const",
			"attr": {
				"value": {
					"tensor": {
						"dtype": "DT_FLOAT",
						"tensorShape": {
							"dim": [{
								"size": "3"
							}, {
								"size": "3"
							}, {
								"size": "1"
							}, {
								"size": "1"
							}]
						}
					}
				},
				"dtype": {
					"type": "DT_FLOAT"
				}
			}
		}, {
			"name": "ConstantFolding/PartitionedCall/split_80-folded-42",
			"op": "Const",
			"attr": {
				"dtype": {
					"type": "DT_FLOAT"
				},
				"value": {
					"tensor": {
						"dtype": "DT_FLOAT",
						"tensorShape": {
							"dim": [{
								"size": "3"
							}, {
								"size": "3"
							}, {
								"size": "1"
							}, {
								"size": "1"
							}]
						}
					}
				}
			}
		}, {
			"name": "ConstantFolding/PartitionedCall/split_80-folded-43",
			"op": "Const",
			"attr": {
				"value": {
					"tensor": {
						"dtype": "DT_FLOAT",
						"tensorShape": {
							"dim": [{
								"size": "3"
							}, {
								"size": "3"
							}, {
								"size": "1"
							}, {
								"size": "1"
							}]
						}
					}
				},
				"dtype": {
					"type": "DT_FLOAT"
				}
			}
		}, {
			"name": "ConstantFolding/PartitionedCall/split_80-folded-44",
			"op": "Const",
			"attr": {
				"dtype": {
					"type": "DT_FLOAT"
				},
				"value": {
					"tensor": {
						"dtype": "DT_FLOAT",
						"tensorShape": {
							"dim": [{
								"size": "3"
							}, {
								"size": "3"
							}, {
								"size": "1"
							}, {
								"size": "1"
							}]
						}
					}
				}
			}
		}, {
			"name": "ConstantFolding/PartitionedCall/split_80-folded-45",
			"op": "Const",
			"attr": {
				"dtype": {
					"type": "DT_FLOAT"
				},
				"value": {
					"tensor": {
						"dtype": "DT_FLOAT",
						"tensorShape": {
							"dim": [{
								"size": "3"
							}, {
								"size": "3"
							}, {
								"size": "1"
							}, {
								"size": "1"
							}]
						}
					}
				}
			}
		}, {
			"name": "ConstantFolding/PartitionedCall/split_80-folded-46",
			"op": "Const",
			"attr": {
				"dtype": {
					"type": "DT_FLOAT"
				},
				"value": {
					"tensor": {
						"dtype": "DT_FLOAT",
						"tensorShape": {
							"dim": [{
								"size": "3"
							}, {
								"size": "3"
							}, {
								"size": "1"
							}, {
								"size": "1"
							}]
						}
					}
				}
			}
		}, {
			"name": "ConstantFolding/PartitionedCall/split_80-folded-47",
			"op": "Const",
			"attr": {
				"value": {
					"tensor": {
						"dtype": "DT_FLOAT",
						"tensorShape": {
							"dim": [{
								"size": "3"
							}, {
								"size": "3"
							}, {
								"size": "1"
							}, {
								"size": "1"
							}]
						}
					}
				},
				"dtype": {
					"type": "DT_FLOAT"
				}
			}
		}, {
			"name": "ConstantFolding/PartitionedCall/split_80-folded-48",
			"op": "Const",
			"attr": {
				"dtype": {
					"type": "DT_FLOAT"
				},
				"value": {
					"tensor": {
						"dtype": "DT_FLOAT",
						"tensorShape": {
							"dim": [{
								"size": "3"
							}, {
								"size": "3"
							}, {
								"size": "1"
							}, {
								"size": "1"
							}]
						}
					}
				}
			}
		}, {
			"name": "ConstantFolding/PartitionedCall/split_80-folded-49",
			"op": "Const",
			"attr": {
				"value": {
					"tensor": {
						"dtype": "DT_FLOAT",
						"tensorShape": {
							"dim": [{
								"size": "3"
							}, {
								"size": "3"
							}, {
								"size": "1"
							}, {
								"size": "1"
							}]
						}
					}
				},
				"dtype": {
					"type": "DT_FLOAT"
				}
			}
		}, {
			"name": "ConstantFolding/PartitionedCall/split_80-folded-50",
			"op": "Const",
			"attr": {
				"value": {
					"tensor": {
						"dtype": "DT_FLOAT",
						"tensorShape": {
							"dim": [{
								"size": "3"
							}, {
								"size": "3"
							}, {
								"size": "1"
							}, {
								"size": "1"
							}]
						}
					}
				},
				"dtype": {
					"type": "DT_FLOAT"
				}
			}
		}, {
			"name": "ConstantFolding/PartitionedCall/split_80-folded-51",
			"op": "Const",
			"attr": {
				"value": {
					"tensor": {
						"dtype": "DT_FLOAT",
						"tensorShape": {
							"dim": [{
								"size": "3"
							}, {
								"size": "3"
							}, {
								"size": "1"
							}, {
								"size": "1"
							}]
						}
					}
				},
				"dtype": {
					"type": "DT_FLOAT"
				}
			}
		}, {
			"name": "ConstantFolding/PartitionedCall/split_80-folded-52",
			"op": "Const",
			"attr": {
				"value": {
					"tensor": {
						"dtype": "DT_FLOAT",
						"tensorShape": {
							"dim": [{
								"size": "3"
							}, {
								"size": "3"
							}, {
								"size": "1"
							}, {
								"size": "1"
							}]
						}
					}
				},
				"dtype": {
					"type": "DT_FLOAT"
				}
			}
		}, {
			"name": "ConstantFolding/PartitionedCall/split_80-folded-53",
			"op": "Const",
			"attr": {
				"dtype": {
					"type": "DT_FLOAT"
				},
				"value": {
					"tensor": {
						"dtype": "DT_FLOAT",
						"tensorShape": {
							"dim": [{
								"size": "3"
							}, {
								"size": "3"
							}, {
								"size": "1"
							}, {
								"size": "1"
							}]
						}
					}
				}
			}
		}, {
			"name": "ConstantFolding/PartitionedCall/split_80-folded-54",
			"op": "Const",
			"attr": {
				"dtype": {
					"type": "DT_FLOAT"
				},
				"value": {
					"tensor": {
						"dtype": "DT_FLOAT",
						"tensorShape": {
							"dim": [{
								"size": "3"
							}, {
								"size": "3"
							}, {
								"size": "1"
							}, {
								"size": "1"
							}]
						}
					}
				}
			}
		}, {
			"name": "ConstantFolding/PartitionedCall/split_80-folded-55",
			"op": "Const",
			"attr": {
				"value": {
					"tensor": {
						"dtype": "DT_FLOAT",
						"tensorShape": {
							"dim": [{
								"size": "3"
							}, {
								"size": "3"
							}, {
								"size": "1"
							}, {
								"size": "1"
							}]
						}
					}
				},
				"dtype": {
					"type": "DT_FLOAT"
				}
			}
		}, {
			"name": "ConstantFolding/PartitionedCall/split_80-folded-56",
			"op": "Const",
			"attr": {
				"dtype": {
					"type": "DT_FLOAT"
				},
				"value": {
					"tensor": {
						"dtype": "DT_FLOAT",
						"tensorShape": {
							"dim": [{
								"size": "3"
							}, {
								"size": "3"
							}, {
								"size": "1"
							}, {
								"size": "1"
							}]
						}
					}
				}
			}
		}, {
			"name": "ConstantFolding/PartitionedCall/split_80-folded-57",
			"op": "Const",
			"attr": {
				"dtype": {
					"type": "DT_FLOAT"
				},
				"value": {
					"tensor": {
						"dtype": "DT_FLOAT",
						"tensorShape": {
							"dim": [{
								"size": "3"
							}, {
								"size": "3"
							}, {
								"size": "1"
							}, {
								"size": "1"
							}]
						}
					}
				}
			}
		}, {
			"name": "ConstantFolding/PartitionedCall/split_80-folded-58",
			"op": "Const",
			"attr": {
				"value": {
					"tensor": {
						"dtype": "DT_FLOAT",
						"tensorShape": {
							"dim": [{
								"size": "3"
							}, {
								"size": "3"
							}, {
								"size": "1"
							}, {
								"size": "1"
							}]
						}
					}
				},
				"dtype": {
					"type": "DT_FLOAT"
				}
			}
		}, {
			"name": "ConstantFolding/PartitionedCall/split_80-folded-59",
			"op": "Const",
			"attr": {
				"dtype": {
					"type": "DT_FLOAT"
				},
				"value": {
					"tensor": {
						"dtype": "DT_FLOAT",
						"tensorShape": {
							"dim": [{
								"size": "3"
							}, {
								"size": "3"
							}, {
								"size": "1"
							}, {
								"size": "1"
							}]
						}
					}
				}
			}
		}, {
			"name": "ConstantFolding/PartitionedCall/split_80-folded-60",
			"op": "Const",
			"attr": {
				"dtype": {
					"type": "DT_FLOAT"
				},
				"value": {
					"tensor": {
						"dtype": "DT_FLOAT",
						"tensorShape": {
							"dim": [{
								"size": "3"
							}, {
								"size": "3"
							}, {
								"size": "1"
							}, {
								"size": "1"
							}]
						}
					}
				}
			}
		}, {
			"name": "ConstantFolding/PartitionedCall/split_80-folded-61",
			"op": "Const",
			"attr": {
				"dtype": {
					"type": "DT_FLOAT"
				},
				"value": {
					"tensor": {
						"dtype": "DT_FLOAT",
						"tensorShape": {
							"dim": [{
								"size": "3"
							}, {
								"size": "3"
							}, {
								"size": "1"
							}, {
								"size": "1"
							}]
						}
					}
				}
			}
		}, {
			"name": "ConstantFolding/PartitionedCall/split_80-folded-62",
			"op": "Const",
			"attr": {
				"value": {
					"tensor": {
						"dtype": "DT_FLOAT",
						"tensorShape": {
							"dim": [{
								"size": "3"
							}, {
								"size": "3"
							}, {
								"size": "1"
							}, {
								"size": "1"
							}]
						}
					}
				},
				"dtype": {
					"type": "DT_FLOAT"
				}
			}
		}, {
			"name": "ConstantFolding/PartitionedCall/split_80-folded-63",
			"op": "Const",
			"attr": {
				"dtype": {
					"type": "DT_FLOAT"
				},
				"value": {
					"tensor": {
						"dtype": "DT_FLOAT",
						"tensorShape": {
							"dim": [{
								"size": "3"
							}, {
								"size": "3"
							}, {
								"size": "1"
							}, {
								"size": "1"
							}]
						}
					}
				}
			}
		}, {
			"name": "ConstantFolding/PartitionedCall/split_80-folded-64",
			"op": "Const",
			"attr": {
				"value": {
					"tensor": {
						"dtype": "DT_FLOAT",
						"tensorShape": {
							"dim": [{
								"size": "3"
							}, {
								"size": "3"
							}, {
								"size": "1"
							}, {
								"size": "1"
							}]
						}
					}
				},
				"dtype": {
					"type": "DT_FLOAT"
				}
			}
		}, {
			"name": "ConstantFolding/PartitionedCall/split_80-folded-65",
			"op": "Const",
			"attr": {
				"value": {
					"tensor": {
						"dtype": "DT_FLOAT",
						"tensorShape": {
							"dim": [{
								"size": "3"
							}, {
								"size": "3"
							}, {
								"size": "1"
							}, {
								"size": "1"
							}]
						}
					}
				},
				"dtype": {
					"type": "DT_FLOAT"
				}
			}
		}, {
			"name": "ConstantFolding/PartitionedCall/split_80-folded-66",
			"op": "Const",
			"attr": {
				"dtype": {
					"type": "DT_FLOAT"
				},
				"value": {
					"tensor": {
						"dtype": "DT_FLOAT",
						"tensorShape": {
							"dim": [{
								"size": "3"
							}, {
								"size": "3"
							}, {
								"size": "1"
							}, {
								"size": "1"
							}]
						}
					}
				}
			}
		}, {
			"name": "ConstantFolding/PartitionedCall/split_80-folded-67",
			"op": "Const",
			"attr": {
				"dtype": {
					"type": "DT_FLOAT"
				},
				"value": {
					"tensor": {
						"dtype": "DT_FLOAT",
						"tensorShape": {
							"dim": [{
								"size": "3"
							}, {
								"size": "3"
							}, {
								"size": "1"
							}, {
								"size": "1"
							}]
						}
					}
				}
			}
		}, {
			"name": "ConstantFolding/PartitionedCall/split_80-folded-68",
			"op": "Const",
			"attr": {
				"dtype": {
					"type": "DT_FLOAT"
				},
				"value": {
					"tensor": {
						"dtype": "DT_FLOAT",
						"tensorShape": {
							"dim": [{
								"size": "3"
							}, {
								"size": "3"
							}, {
								"size": "1"
							}, {
								"size": "1"
							}]
						}
					}
				}
			}
		}, {
			"name": "ConstantFolding/PartitionedCall/split_80-folded-69",
			"op": "Const",
			"attr": {
				"dtype": {
					"type": "DT_FLOAT"
				},
				"value": {
					"tensor": {
						"dtype": "DT_FLOAT",
						"tensorShape": {
							"dim": [{
								"size": "3"
							}, {
								"size": "3"
							}, {
								"size": "1"
							}, {
								"size": "1"
							}]
						}
					}
				}
			}
		}, {
			"name": "ConstantFolding/PartitionedCall/split_80-folded-70",
			"op": "Const",
			"attr": {
				"dtype": {
					"type": "DT_FLOAT"
				},
				"value": {
					"tensor": {
						"dtype": "DT_FLOAT",
						"tensorShape": {
							"dim": [{
								"size": "3"
							}, {
								"size": "3"
							}, {
								"size": "1"
							}, {
								"size": "1"
							}]
						}
					}
				}
			}
		}, {
			"name": "ConstantFolding/PartitionedCall/split_80-folded-71",
			"op": "Const",
			"attr": {
				"value": {
					"tensor": {
						"dtype": "DT_FLOAT",
						"tensorShape": {
							"dim": [{
								"size": "3"
							}, {
								"size": "3"
							}, {
								"size": "1"
							}, {
								"size": "1"
							}]
						}
					}
				},
				"dtype": {
					"type": "DT_FLOAT"
				}
			}
		}, {
			"name": "ConstantFolding/PartitionedCall/split_80-folded-72",
			"op": "Const",
			"attr": {
				"value": {
					"tensor": {
						"dtype": "DT_FLOAT",
						"tensorShape": {
							"dim": [{
								"size": "3"
							}, {
								"size": "3"
							}, {
								"size": "1"
							}, {
								"size": "1"
							}]
						}
					}
				},
				"dtype": {
					"type": "DT_FLOAT"
				}
			}
		}, {
			"name": "ConstantFolding/PartitionedCall/split_80-folded-73",
			"op": "Const",
			"attr": {
				"dtype": {
					"type": "DT_FLOAT"
				},
				"value": {
					"tensor": {
						"dtype": "DT_FLOAT",
						"tensorShape": {
							"dim": [{
								"size": "3"
							}, {
								"size": "3"
							}, {
								"size": "1"
							}, {
								"size": "1"
							}]
						}
					}
				}
			}
		}, {
			"name": "ConstantFolding/PartitionedCall/split_80-folded-74",
			"op": "Const",
			"attr": {
				"dtype": {
					"type": "DT_FLOAT"
				},
				"value": {
					"tensor": {
						"dtype": "DT_FLOAT",
						"tensorShape": {
							"dim": [{
								"size": "3"
							}, {
								"size": "3"
							}, {
								"size": "1"
							}, {
								"size": "1"
							}]
						}
					}
				}
			}
		}, {
			"name": "ConstantFolding/PartitionedCall/split_80-folded-75",
			"op": "Const",
			"attr": {
				"value": {
					"tensor": {
						"dtype": "DT_FLOAT",
						"tensorShape": {
							"dim": [{
								"size": "3"
							}, {
								"size": "3"
							}, {
								"size": "1"
							}, {
								"size": "1"
							}]
						}
					}
				},
				"dtype": {
					"type": "DT_FLOAT"
				}
			}
		}, {
			"name": "ConstantFolding/PartitionedCall/split_80-folded-76",
			"op": "Const",
			"attr": {
				"value": {
					"tensor": {
						"dtype": "DT_FLOAT",
						"tensorShape": {
							"dim": [{
								"size": "3"
							}, {
								"size": "3"
							}, {
								"size": "1"
							}, {
								"size": "1"
							}]
						}
					}
				},
				"dtype": {
					"type": "DT_FLOAT"
				}
			}
		}, {
			"name": "ConstantFolding/PartitionedCall/split_80-folded-77",
			"op": "Const",
			"attr": {
				"dtype": {
					"type": "DT_FLOAT"
				},
				"value": {
					"tensor": {
						"dtype": "DT_FLOAT",
						"tensorShape": {
							"dim": [{
								"size": "3"
							}, {
								"size": "3"
							}, {
								"size": "1"
							}, {
								"size": "1"
							}]
						}
					}
				}
			}
		}, {
			"name": "ConstantFolding/PartitionedCall/split_80-folded-78",
			"op": "Const",
			"attr": {
				"dtype": {
					"type": "DT_FLOAT"
				},
				"value": {
					"tensor": {
						"dtype": "DT_FLOAT",
						"tensorShape": {
							"dim": [{
								"size": "3"
							}, {
								"size": "3"
							}, {
								"size": "1"
							}, {
								"size": "1"
							}]
						}
					}
				}
			}
		}, {
			"name": "ConstantFolding/PartitionedCall/split_80-folded-79",
			"op": "Const",
			"attr": {
				"value": {
					"tensor": {
						"dtype": "DT_FLOAT",
						"tensorShape": {
							"dim": [{
								"size": "3"
							}, {
								"size": "3"
							}, {
								"size": "1"
							}, {
								"size": "1"
							}]
						}
					}
				},
				"dtype": {
					"type": "DT_FLOAT"
				}
			}
		}, {
			"name": "ConstantFolding/PartitionedCall/split_80-folded-80",
			"op": "Const",
			"attr": {
				"value": {
					"tensor": {
						"dtype": "DT_FLOAT",
						"tensorShape": {
							"dim": [{
								"size": "3"
							}, {
								"size": "3"
							}, {
								"size": "1"
							}, {
								"size": "1"
							}]
						}
					}
				},
				"dtype": {
					"type": "DT_FLOAT"
				}
			}
		}, {
			"name": "ConstantFolding/PartitionedCall/split_80-folded-81",
			"op": "Const",
			"attr": {
				"dtype": {
					"type": "DT_FLOAT"
				},
				"value": {
					"tensor": {
						"dtype": "DT_FLOAT",
						"tensorShape": {
							"dim": [{
								"size": "3"
							}, {
								"size": "3"
							}, {
								"size": "1"
							}, {
								"size": "1"
							}]
						}
					}
				}
			}
		}, {
			"name": "ConstantFolding/PartitionedCall/split_80-folded-82",
			"op": "Const",
			"attr": {
				"value": {
					"tensor": {
						"dtype": "DT_FLOAT",
						"tensorShape": {
							"dim": [{
								"size": "3"
							}, {
								"size": "3"
							}, {
								"size": "1"
							}, {
								"size": "1"
							}]
						}
					}
				},
				"dtype": {
					"type": "DT_FLOAT"
				}
			}
		}, {
			"name": "ConstantFolding/PartitionedCall/split_80-folded-83",
			"op": "Const",
			"attr": {
				"dtype": {
					"type": "DT_FLOAT"
				},
				"value": {
					"tensor": {
						"dtype": "DT_FLOAT",
						"tensorShape": {
							"dim": [{
								"size": "3"
							}, {
								"size": "3"
							}, {
								"size": "1"
							}, {
								"size": "1"
							}]
						}
					}
				}
			}
		}, {
			"name": "ConstantFolding/PartitionedCall/split_80-folded-84",
			"op": "Const",
			"attr": {
				"dtype": {
					"type": "DT_FLOAT"
				},
				"value": {
					"tensor": {
						"dtype": "DT_FLOAT",
						"tensorShape": {
							"dim": [{
								"size": "3"
							}, {
								"size": "3"
							}, {
								"size": "1"
							}, {
								"size": "1"
							}]
						}
					}
				}
			}
		}, {
			"name": "ConstantFolding/PartitionedCall/split_80-folded-85",
			"op": "Const",
			"attr": {
				"dtype": {
					"type": "DT_FLOAT"
				},
				"value": {
					"tensor": {
						"dtype": "DT_FLOAT",
						"tensorShape": {
							"dim": [{
								"size": "3"
							}, {
								"size": "3"
							}, {
								"size": "1"
							}, {
								"size": "1"
							}]
						}
					}
				}
			}
		}, {
			"name": "ConstantFolding/PartitionedCall/split_80-folded-86",
			"op": "Const",
			"attr": {
				"dtype": {
					"type": "DT_FLOAT"
				},
				"value": {
					"tensor": {
						"dtype": "DT_FLOAT",
						"tensorShape": {
							"dim": [{
								"size": "3"
							}, {
								"size": "3"
							}, {
								"size": "1"
							}, {
								"size": "1"
							}]
						}
					}
				}
			}
		}, {
			"name": "ConstantFolding/PartitionedCall/split_80-folded-87",
			"op": "Const",
			"attr": {
				"dtype": {
					"type": "DT_FLOAT"
				},
				"value": {
					"tensor": {
						"dtype": "DT_FLOAT",
						"tensorShape": {
							"dim": [{
								"size": "3"
							}, {
								"size": "3"
							}, {
								"size": "1"
							}, {
								"size": "1"
							}]
						}
					}
				}
			}
		}, {
			"name": "ConstantFolding/PartitionedCall/split_80-folded-88",
			"op": "Const",
			"attr": {
				"dtype": {
					"type": "DT_FLOAT"
				},
				"value": {
					"tensor": {
						"dtype": "DT_FLOAT",
						"tensorShape": {
							"dim": [{
								"size": "3"
							}, {
								"size": "3"
							}, {
								"size": "1"
							}, {
								"size": "1"
							}]
						}
					}
				}
			}
		}, {
			"name": "ConstantFolding/PartitionedCall/split_80-folded-89",
			"op": "Const",
			"attr": {
				"value": {
					"tensor": {
						"dtype": "DT_FLOAT",
						"tensorShape": {
							"dim": [{
								"size": "3"
							}, {
								"size": "3"
							}, {
								"size": "1"
							}, {
								"size": "1"
							}]
						}
					}
				},
				"dtype": {
					"type": "DT_FLOAT"
				}
			}
		}, {
			"name": "ConstantFolding/PartitionedCall/split_80-folded-90",
			"op": "Const",
			"attr": {
				"dtype": {
					"type": "DT_FLOAT"
				},
				"value": {
					"tensor": {
						"dtype": "DT_FLOAT",
						"tensorShape": {
							"dim": [{
								"size": "3"
							}, {
								"size": "3"
							}, {
								"size": "1"
							}, {
								"size": "1"
							}]
						}
					}
				}
			}
		}, {
			"name": "ConstantFolding/PartitionedCall/split_80-folded-91",
			"op": "Const",
			"attr": {
				"value": {
					"tensor": {
						"dtype": "DT_FLOAT",
						"tensorShape": {
							"dim": [{
								"size": "3"
							}, {
								"size": "3"
							}, {
								"size": "1"
							}, {
								"size": "1"
							}]
						}
					}
				},
				"dtype": {
					"type": "DT_FLOAT"
				}
			}
		}, {
			"name": "ConstantFolding/PartitionedCall/split_80-folded-92",
			"op": "Const",
			"attr": {
				"dtype": {
					"type": "DT_FLOAT"
				},
				"value": {
					"tensor": {
						"dtype": "DT_FLOAT",
						"tensorShape": {
							"dim": [{
								"size": "3"
							}, {
								"size": "3"
							}, {
								"size": "1"
							}, {
								"size": "1"
							}]
						}
					}
				}
			}
		}, {
			"name": "ConstantFolding/PartitionedCall/split_80-folded-93",
			"op": "Const",
			"attr": {
				"value": {
					"tensor": {
						"dtype": "DT_FLOAT",
						"tensorShape": {
							"dim": [{
								"size": "3"
							}, {
								"size": "3"
							}, {
								"size": "1"
							}, {
								"size": "1"
							}]
						}
					}
				},
				"dtype": {
					"type": "DT_FLOAT"
				}
			}
		}, {
			"name": "ConstantFolding/PartitionedCall/split_80-folded-94",
			"op": "Const",
			"attr": {
				"value": {
					"tensor": {
						"dtype": "DT_FLOAT",
						"tensorShape": {
							"dim": [{
								"size": "3"
							}, {
								"size": "3"
							}, {
								"size": "1"
							}, {
								"size": "1"
							}]
						}
					}
				},
				"dtype": {
					"type": "DT_FLOAT"
				}
			}
		}, {
			"name": "PartitionedCall/split_81/split_dim",
			"op": "Const",
			"attr": {
				"value": {
					"tensor": {
						"dtype": "DT_INT32",
						"tensorShape": {}
					}
				},
				"dtype": {
					"type": "DT_INT32"
				}
			}
		}, {
			"name": "ConstantFolding/PartitionedCall/split_77-folded-0",
			"op": "Const",
			"attr": {
				"dtype": {
					"type": "DT_FLOAT"
				},
				"value": {
					"tensor": {
						"dtype": "DT_FLOAT",
						"tensorShape": {
							"dim": [{
								"size": "3"
							}, {
								"size": "3"
							}, {
								"size": "1"
							}, {
								"size": "1"
							}]
						}
					}
				}
			}
		}, {
			"name": "ConstantFolding/PartitionedCall/split_77-folded-1",
			"op": "Const",
			"attr": {
				"dtype": {
					"type": "DT_FLOAT"
				},
				"value": {
					"tensor": {
						"dtype": "DT_FLOAT",
						"tensorShape": {
							"dim": [{
								"size": "3"
							}, {
								"size": "3"
							}, {
								"size": "1"
							}, {
								"size": "1"
							}]
						}
					}
				}
			}
		}, {
			"name": "ConstantFolding/PartitionedCall/split_77-folded-2",
			"op": "Const",
			"attr": {
				"dtype": {
					"type": "DT_FLOAT"
				},
				"value": {
					"tensor": {
						"dtype": "DT_FLOAT",
						"tensorShape": {
							"dim": [{
								"size": "3"
							}, {
								"size": "3"
							}, {
								"size": "1"
							}, {
								"size": "1"
							}]
						}
					}
				}
			}
		}, {
			"name": "ConstantFolding/PartitionedCall/split_77-folded-3",
			"op": "Const",
			"attr": {
				"value": {
					"tensor": {
						"dtype": "DT_FLOAT",
						"tensorShape": {
							"dim": [{
								"size": "3"
							}, {
								"size": "3"
							}, {
								"size": "1"
							}, {
								"size": "1"
							}]
						}
					}
				},
				"dtype": {
					"type": "DT_FLOAT"
				}
			}
		}, {
			"name": "ConstantFolding/PartitionedCall/split_77-folded-4",
			"op": "Const",
			"attr": {
				"value": {
					"tensor": {
						"dtype": "DT_FLOAT",
						"tensorShape": {
							"dim": [{
								"size": "3"
							}, {
								"size": "3"
							}, {
								"size": "1"
							}, {
								"size": "1"
							}]
						}
					}
				},
				"dtype": {
					"type": "DT_FLOAT"
				}
			}
		}, {
			"name": "ConstantFolding/PartitionedCall/split_77-folded-5",
			"op": "Const",
			"attr": {
				"value": {
					"tensor": {
						"dtype": "DT_FLOAT",
						"tensorShape": {
							"dim": [{
								"size": "3"
							}, {
								"size": "3"
							}, {
								"size": "1"
							}, {
								"size": "1"
							}]
						}
					}
				},
				"dtype": {
					"type": "DT_FLOAT"
				}
			}
		}, {
			"name": "ConstantFolding/PartitionedCall/split_77-folded-6",
			"op": "Const",
			"attr": {
				"dtype": {
					"type": "DT_FLOAT"
				},
				"value": {
					"tensor": {
						"dtype": "DT_FLOAT",
						"tensorShape": {
							"dim": [{
								"size": "3"
							}, {
								"size": "3"
							}, {
								"size": "1"
							}, {
								"size": "1"
							}]
						}
					}
				}
			}
		}, {
			"name": "ConstantFolding/PartitionedCall/split_77-folded-7",
			"op": "Const",
			"attr": {
				"dtype": {
					"type": "DT_FLOAT"
				},
				"value": {
					"tensor": {
						"dtype": "DT_FLOAT",
						"tensorShape": {
							"dim": [{
								"size": "3"
							}, {
								"size": "3"
							}, {
								"size": "1"
							}, {
								"size": "1"
							}]
						}
					}
				}
			}
		}, {
			"name": "ConstantFolding/PartitionedCall/split_77-folded-8",
			"op": "Const",
			"attr": {
				"value": {
					"tensor": {
						"dtype": "DT_FLOAT",
						"tensorShape": {
							"dim": [{
								"size": "3"
							}, {
								"size": "3"
							}, {
								"size": "1"
							}, {
								"size": "1"
							}]
						}
					}
				},
				"dtype": {
					"type": "DT_FLOAT"
				}
			}
		}, {
			"name": "ConstantFolding/PartitionedCall/split_77-folded-9",
			"op": "Const",
			"attr": {
				"dtype": {
					"type": "DT_FLOAT"
				},
				"value": {
					"tensor": {
						"dtype": "DT_FLOAT",
						"tensorShape": {
							"dim": [{
								"size": "3"
							}, {
								"size": "3"
							}, {
								"size": "1"
							}, {
								"size": "1"
							}]
						}
					}
				}
			}
		}, {
			"name": "ConstantFolding/PartitionedCall/split_77-folded-10",
			"op": "Const",
			"attr": {
				"dtype": {
					"type": "DT_FLOAT"
				},
				"value": {
					"tensor": {
						"dtype": "DT_FLOAT",
						"tensorShape": {
							"dim": [{
								"size": "3"
							}, {
								"size": "3"
							}, {
								"size": "1"
							}, {
								"size": "1"
							}]
						}
					}
				}
			}
		}, {
			"name": "ConstantFolding/PartitionedCall/split_77-folded-11",
			"op": "Const",
			"attr": {
				"dtype": {
					"type": "DT_FLOAT"
				},
				"value": {
					"tensor": {
						"dtype": "DT_FLOAT",
						"tensorShape": {
							"dim": [{
								"size": "3"
							}, {
								"size": "3"
							}, {
								"size": "1"
							}, {
								"size": "1"
							}]
						}
					}
				}
			}
		}, {
			"name": "ConstantFolding/PartitionedCall/split_77-folded-12",
			"op": "Const",
			"attr": {
				"dtype": {
					"type": "DT_FLOAT"
				},
				"value": {
					"tensor": {
						"dtype": "DT_FLOAT",
						"tensorShape": {
							"dim": [{
								"size": "3"
							}, {
								"size": "3"
							}, {
								"size": "1"
							}, {
								"size": "1"
							}]
						}
					}
				}
			}
		}, {
			"name": "ConstantFolding/PartitionedCall/split_77-folded-13",
			"op": "Const",
			"attr": {
				"value": {
					"tensor": {
						"dtype": "DT_FLOAT",
						"tensorShape": {
							"dim": [{
								"size": "3"
							}, {
								"size": "3"
							}, {
								"size": "1"
							}, {
								"size": "1"
							}]
						}
					}
				},
				"dtype": {
					"type": "DT_FLOAT"
				}
			}
		}, {
			"name": "ConstantFolding/PartitionedCall/split_77-folded-14",
			"op": "Const",
			"attr": {
				"dtype": {
					"type": "DT_FLOAT"
				},
				"value": {
					"tensor": {
						"dtype": "DT_FLOAT",
						"tensorShape": {
							"dim": [{
								"size": "3"
							}, {
								"size": "3"
							}, {
								"size": "1"
							}, {
								"size": "1"
							}]
						}
					}
				}
			}
		}, {
			"name": "ConstantFolding/PartitionedCall/split_77-folded-15",
			"op": "Const",
			"attr": {
				"value": {
					"tensor": {
						"dtype": "DT_FLOAT",
						"tensorShape": {
							"dim": [{
								"size": "3"
							}, {
								"size": "3"
							}, {
								"size": "1"
							}, {
								"size": "1"
							}]
						}
					}
				},
				"dtype": {
					"type": "DT_FLOAT"
				}
			}
		}, {
			"name": "ConstantFolding/PartitionedCall/split_77-folded-16",
			"op": "Const",
			"attr": {
				"dtype": {
					"type": "DT_FLOAT"
				},
				"value": {
					"tensor": {
						"dtype": "DT_FLOAT",
						"tensorShape": {
							"dim": [{
								"size": "3"
							}, {
								"size": "3"
							}, {
								"size": "1"
							}, {
								"size": "1"
							}]
						}
					}
				}
			}
		}, {
			"name": "ConstantFolding/PartitionedCall/split_77-folded-17",
			"op": "Const",
			"attr": {
				"dtype": {
					"type": "DT_FLOAT"
				},
				"value": {
					"tensor": {
						"dtype": "DT_FLOAT",
						"tensorShape": {
							"dim": [{
								"size": "3"
							}, {
								"size": "3"
							}, {
								"size": "1"
							}, {
								"size": "1"
							}]
						}
					}
				}
			}
		}, {
			"name": "ConstantFolding/PartitionedCall/split_77-folded-18",
			"op": "Const",
			"attr": {
				"dtype": {
					"type": "DT_FLOAT"
				},
				"value": {
					"tensor": {
						"dtype": "DT_FLOAT",
						"tensorShape": {
							"dim": [{
								"size": "3"
							}, {
								"size": "3"
							}, {
								"size": "1"
							}, {
								"size": "1"
							}]
						}
					}
				}
			}
		}, {
			"name": "ConstantFolding/PartitionedCall/split_77-folded-19",
			"op": "Const",
			"attr": {
				"dtype": {
					"type": "DT_FLOAT"
				},
				"value": {
					"tensor": {
						"dtype": "DT_FLOAT",
						"tensorShape": {
							"dim": [{
								"size": "3"
							}, {
								"size": "3"
							}, {
								"size": "1"
							}, {
								"size": "1"
							}]
						}
					}
				}
			}
		}, {
			"name": "ConstantFolding/PartitionedCall/split_77-folded-20",
			"op": "Const",
			"attr": {
				"value": {
					"tensor": {
						"dtype": "DT_FLOAT",
						"tensorShape": {
							"dim": [{
								"size": "3"
							}, {
								"size": "3"
							}, {
								"size": "1"
							}, {
								"size": "1"
							}]
						}
					}
				},
				"dtype": {
					"type": "DT_FLOAT"
				}
			}
		}, {
			"name": "ConstantFolding/PartitionedCall/split_77-folded-21",
			"op": "Const",
			"attr": {
				"dtype": {
					"type": "DT_FLOAT"
				},
				"value": {
					"tensor": {
						"dtype": "DT_FLOAT",
						"tensorShape": {
							"dim": [{
								"size": "3"
							}, {
								"size": "3"
							}, {
								"size": "1"
							}, {
								"size": "1"
							}]
						}
					}
				}
			}
		}, {
			"name": "ConstantFolding/PartitionedCall/split_77-folded-22",
			"op": "Const",
			"attr": {
				"value": {
					"tensor": {
						"dtype": "DT_FLOAT",
						"tensorShape": {
							"dim": [{
								"size": "3"
							}, {
								"size": "3"
							}, {
								"size": "1"
							}, {
								"size": "1"
							}]
						}
					}
				},
				"dtype": {
					"type": "DT_FLOAT"
				}
			}
		}, {
			"name": "ConstantFolding/PartitionedCall/split_77-folded-23",
			"op": "Const",
			"attr": {
				"dtype": {
					"type": "DT_FLOAT"
				},
				"value": {
					"tensor": {
						"dtype": "DT_FLOAT",
						"tensorShape": {
							"dim": [{
								"size": "3"
							}, {
								"size": "3"
							}, {
								"size": "1"
							}, {
								"size": "1"
							}]
						}
					}
				}
			}
		}, {
			"name": "ConstantFolding/PartitionedCall/split_77-folded-24",
			"op": "Const",
			"attr": {
				"dtype": {
					"type": "DT_FLOAT"
				},
				"value": {
					"tensor": {
						"dtype": "DT_FLOAT",
						"tensorShape": {
							"dim": [{
								"size": "3"
							}, {
								"size": "3"
							}, {
								"size": "1"
							}, {
								"size": "1"
							}]
						}
					}
				}
			}
		}, {
			"name": "ConstantFolding/PartitionedCall/split_77-folded-25",
			"op": "Const",
			"attr": {
				"value": {
					"tensor": {
						"dtype": "DT_FLOAT",
						"tensorShape": {
							"dim": [{
								"size": "3"
							}, {
								"size": "3"
							}, {
								"size": "1"
							}, {
								"size": "1"
							}]
						}
					}
				},
				"dtype": {
					"type": "DT_FLOAT"
				}
			}
		}, {
			"name": "ConstantFolding/PartitionedCall/split_77-folded-26",
			"op": "Const",
			"attr": {
				"value": {
					"tensor": {
						"dtype": "DT_FLOAT",
						"tensorShape": {
							"dim": [{
								"size": "3"
							}, {
								"size": "3"
							}, {
								"size": "1"
							}, {
								"size": "1"
							}]
						}
					}
				},
				"dtype": {
					"type": "DT_FLOAT"
				}
			}
		}, {
			"name": "ConstantFolding/PartitionedCall/split_77-folded-27",
			"op": "Const",
			"attr": {
				"value": {
					"tensor": {
						"dtype": "DT_FLOAT",
						"tensorShape": {
							"dim": [{
								"size": "3"
							}, {
								"size": "3"
							}, {
								"size": "1"
							}, {
								"size": "1"
							}]
						}
					}
				},
				"dtype": {
					"type": "DT_FLOAT"
				}
			}
		}, {
			"name": "ConstantFolding/PartitionedCall/split_77-folded-28",
			"op": "Const",
			"attr": {
				"dtype": {
					"type": "DT_FLOAT"
				},
				"value": {
					"tensor": {
						"dtype": "DT_FLOAT",
						"tensorShape": {
							"dim": [{
								"size": "3"
							}, {
								"size": "3"
							}, {
								"size": "1"
							}, {
								"size": "1"
							}]
						}
					}
				}
			}
		}, {
			"name": "ConstantFolding/PartitionedCall/split_77-folded-29",
			"op": "Const",
			"attr": {
				"dtype": {
					"type": "DT_FLOAT"
				},
				"value": {
					"tensor": {
						"dtype": "DT_FLOAT",
						"tensorShape": {
							"dim": [{
								"size": "3"
							}, {
								"size": "3"
							}, {
								"size": "1"
							}, {
								"size": "1"
							}]
						}
					}
				}
			}
		}, {
			"name": "ConstantFolding/PartitionedCall/split_77-folded-30",
			"op": "Const",
			"attr": {
				"value": {
					"tensor": {
						"dtype": "DT_FLOAT",
						"tensorShape": {
							"dim": [{
								"size": "3"
							}, {
								"size": "3"
							}, {
								"size": "1"
							}, {
								"size": "1"
							}]
						}
					}
				},
				"dtype": {
					"type": "DT_FLOAT"
				}
			}
		}, {
			"name": "ConstantFolding/PartitionedCall/split_77-folded-31",
			"op": "Const",
			"attr": {
				"dtype": {
					"type": "DT_FLOAT"
				},
				"value": {
					"tensor": {
						"dtype": "DT_FLOAT",
						"tensorShape": {
							"dim": [{
								"size": "3"
							}, {
								"size": "3"
							}, {
								"size": "1"
							}, {
								"size": "1"
							}]
						}
					}
				}
			}
		}, {
			"name": "ConstantFolding/PartitionedCall/split_77-folded-32",
			"op": "Const",
			"attr": {
				"dtype": {
					"type": "DT_FLOAT"
				},
				"value": {
					"tensor": {
						"dtype": "DT_FLOAT",
						"tensorShape": {
							"dim": [{
								"size": "3"
							}, {
								"size": "3"
							}, {
								"size": "1"
							}, {
								"size": "1"
							}]
						}
					}
				}
			}
		}, {
			"name": "ConstantFolding/PartitionedCall/split_77-folded-33",
			"op": "Const",
			"attr": {
				"value": {
					"tensor": {
						"dtype": "DT_FLOAT",
						"tensorShape": {
							"dim": [{
								"size": "3"
							}, {
								"size": "3"
							}, {
								"size": "1"
							}, {
								"size": "1"
							}]
						}
					}
				},
				"dtype": {
					"type": "DT_FLOAT"
				}
			}
		}, {
			"name": "ConstantFolding/PartitionedCall/split_77-folded-34",
			"op": "Const",
			"attr": {
				"value": {
					"tensor": {
						"dtype": "DT_FLOAT",
						"tensorShape": {
							"dim": [{
								"size": "3"
							}, {
								"size": "3"
							}, {
								"size": "1"
							}, {
								"size": "1"
							}]
						}
					}
				},
				"dtype": {
					"type": "DT_FLOAT"
				}
			}
		}, {
			"name": "ConstantFolding/PartitionedCall/split_77-folded-35",
			"op": "Const",
			"attr": {
				"value": {
					"tensor": {
						"dtype": "DT_FLOAT",
						"tensorShape": {
							"dim": [{
								"size": "3"
							}, {
								"size": "3"
							}, {
								"size": "1"
							}, {
								"size": "1"
							}]
						}
					}
				},
				"dtype": {
					"type": "DT_FLOAT"
				}
			}
		}, {
			"name": "ConstantFolding/PartitionedCall/split_77-folded-36",
			"op": "Const",
			"attr": {
				"dtype": {
					"type": "DT_FLOAT"
				},
				"value": {
					"tensor": {
						"dtype": "DT_FLOAT",
						"tensorShape": {
							"dim": [{
								"size": "3"
							}, {
								"size": "3"
							}, {
								"size": "1"
							}, {
								"size": "1"
							}]
						}
					}
				}
			}
		}, {
			"name": "ConstantFolding/PartitionedCall/split_77-folded-37",
			"op": "Const",
			"attr": {
				"value": {
					"tensor": {
						"dtype": "DT_FLOAT",
						"tensorShape": {
							"dim": [{
								"size": "3"
							}, {
								"size": "3"
							}, {
								"size": "1"
							}, {
								"size": "1"
							}]
						}
					}
				},
				"dtype": {
					"type": "DT_FLOAT"
				}
			}
		}, {
			"name": "ConstantFolding/PartitionedCall/split_77-folded-38",
			"op": "Const",
			"attr": {
				"dtype": {
					"type": "DT_FLOAT"
				},
				"value": {
					"tensor": {
						"dtype": "DT_FLOAT",
						"tensorShape": {
							"dim": [{
								"size": "3"
							}, {
								"size": "3"
							}, {
								"size": "1"
							}, {
								"size": "1"
							}]
						}
					}
				}
			}
		}, {
			"name": "ConstantFolding/PartitionedCall/split_77-folded-39",
			"op": "Const",
			"attr": {
				"dtype": {
					"type": "DT_FLOAT"
				},
				"value": {
					"tensor": {
						"dtype": "DT_FLOAT",
						"tensorShape": {
							"dim": [{
								"size": "3"
							}, {
								"size": "3"
							}, {
								"size": "1"
							}, {
								"size": "1"
							}]
						}
					}
				}
			}
		}, {
			"name": "ConstantFolding/PartitionedCall/split_77-folded-40",
			"op": "Const",
			"attr": {
				"dtype": {
					"type": "DT_FLOAT"
				},
				"value": {
					"tensor": {
						"dtype": "DT_FLOAT",
						"tensorShape": {
							"dim": [{
								"size": "3"
							}, {
								"size": "3"
							}, {
								"size": "1"
							}, {
								"size": "1"
							}]
						}
					}
				}
			}
		}, {
			"name": "ConstantFolding/PartitionedCall/split_77-folded-41",
			"op": "Const",
			"attr": {
				"value": {
					"tensor": {
						"dtype": "DT_FLOAT",
						"tensorShape": {
							"dim": [{
								"size": "3"
							}, {
								"size": "3"
							}, {
								"size": "1"
							}, {
								"size": "1"
							}]
						}
					}
				},
				"dtype": {
					"type": "DT_FLOAT"
				}
			}
		}, {
			"name": "ConstantFolding/PartitionedCall/split_77-folded-42",
			"op": "Const",
			"attr": {
				"dtype": {
					"type": "DT_FLOAT"
				},
				"value": {
					"tensor": {
						"dtype": "DT_FLOAT",
						"tensorShape": {
							"dim": [{
								"size": "3"
							}, {
								"size": "3"
							}, {
								"size": "1"
							}, {
								"size": "1"
							}]
						}
					}
				}
			}
		}, {
			"name": "ConstantFolding/PartitionedCall/split_77-folded-43",
			"op": "Const",
			"attr": {
				"dtype": {
					"type": "DT_FLOAT"
				},
				"value": {
					"tensor": {
						"dtype": "DT_FLOAT",
						"tensorShape": {
							"dim": [{
								"size": "3"
							}, {
								"size": "3"
							}, {
								"size": "1"
							}, {
								"size": "1"
							}]
						}
					}
				}
			}
		}, {
			"name": "ConstantFolding/PartitionedCall/split_77-folded-44",
			"op": "Const",
			"attr": {
				"value": {
					"tensor": {
						"dtype": "DT_FLOAT",
						"tensorShape": {
							"dim": [{
								"size": "3"
							}, {
								"size": "3"
							}, {
								"size": "1"
							}, {
								"size": "1"
							}]
						}
					}
				},
				"dtype": {
					"type": "DT_FLOAT"
				}
			}
		}, {
			"name": "ConstantFolding/PartitionedCall/split_77-folded-45",
			"op": "Const",
			"attr": {
				"dtype": {
					"type": "DT_FLOAT"
				},
				"value": {
					"tensor": {
						"dtype": "DT_FLOAT",
						"tensorShape": {
							"dim": [{
								"size": "3"
							}, {
								"size": "3"
							}, {
								"size": "1"
							}, {
								"size": "1"
							}]
						}
					}
				}
			}
		}, {
			"name": "ConstantFolding/PartitionedCall/split_77-folded-46",
			"op": "Const",
			"attr": {
				"dtype": {
					"type": "DT_FLOAT"
				},
				"value": {
					"tensor": {
						"dtype": "DT_FLOAT",
						"tensorShape": {
							"dim": [{
								"size": "3"
							}, {
								"size": "3"
							}, {
								"size": "1"
							}, {
								"size": "1"
							}]
						}
					}
				}
			}
		}, {
			"name": "ConstantFolding/PartitionedCall/split_77-folded-47",
			"op": "Const",
			"attr": {
				"value": {
					"tensor": {
						"dtype": "DT_FLOAT",
						"tensorShape": {
							"dim": [{
								"size": "3"
							}, {
								"size": "3"
							}, {
								"size": "1"
							}, {
								"size": "1"
							}]
						}
					}
				},
				"dtype": {
					"type": "DT_FLOAT"
				}
			}
		}, {
			"name": "ConstantFolding/PartitionedCall/split_77-folded-48",
			"op": "Const",
			"attr": {
				"dtype": {
					"type": "DT_FLOAT"
				},
				"value": {
					"tensor": {
						"dtype": "DT_FLOAT",
						"tensorShape": {
							"dim": [{
								"size": "3"
							}, {
								"size": "3"
							}, {
								"size": "1"
							}, {
								"size": "1"
							}]
						}
					}
				}
			}
		}, {
			"name": "ConstantFolding/PartitionedCall/split_77-folded-49",
			"op": "Const",
			"attr": {
				"dtype": {
					"type": "DT_FLOAT"
				},
				"value": {
					"tensor": {
						"dtype": "DT_FLOAT",
						"tensorShape": {
							"dim": [{
								"size": "3"
							}, {
								"size": "3"
							}, {
								"size": "1"
							}, {
								"size": "1"
							}]
						}
					}
				}
			}
		}, {
			"name": "ConstantFolding/PartitionedCall/split_77-folded-50",
			"op": "Const",
			"attr": {
				"value": {
					"tensor": {
						"dtype": "DT_FLOAT",
						"tensorShape": {
							"dim": [{
								"size": "3"
							}, {
								"size": "3"
							}, {
								"size": "1"
							}, {
								"size": "1"
							}]
						}
					}
				},
				"dtype": {
					"type": "DT_FLOAT"
				}
			}
		}, {
			"name": "ConstantFolding/PartitionedCall/split_77-folded-51",
			"op": "Const",
			"attr": {
				"dtype": {
					"type": "DT_FLOAT"
				},
				"value": {
					"tensor": {
						"dtype": "DT_FLOAT",
						"tensorShape": {
							"dim": [{
								"size": "3"
							}, {
								"size": "3"
							}, {
								"size": "1"
							}, {
								"size": "1"
							}]
						}
					}
				}
			}
		}, {
			"name": "ConstantFolding/PartitionedCall/split_77-folded-52",
			"op": "Const",
			"attr": {
				"dtype": {
					"type": "DT_FLOAT"
				},
				"value": {
					"tensor": {
						"dtype": "DT_FLOAT",
						"tensorShape": {
							"dim": [{
								"size": "3"
							}, {
								"size": "3"
							}, {
								"size": "1"
							}, {
								"size": "1"
							}]
						}
					}
				}
			}
		}, {
			"name": "ConstantFolding/PartitionedCall/split_77-folded-53",
			"op": "Const",
			"attr": {
				"dtype": {
					"type": "DT_FLOAT"
				},
				"value": {
					"tensor": {
						"dtype": "DT_FLOAT",
						"tensorShape": {
							"dim": [{
								"size": "3"
							}, {
								"size": "3"
							}, {
								"size": "1"
							}, {
								"size": "1"
							}]
						}
					}
				}
			}
		}, {
			"name": "ConstantFolding/PartitionedCall/split_77-folded-54",
			"op": "Const",
			"attr": {
				"value": {
					"tensor": {
						"dtype": "DT_FLOAT",
						"tensorShape": {
							"dim": [{
								"size": "3"
							}, {
								"size": "3"
							}, {
								"size": "1"
							}, {
								"size": "1"
							}]
						}
					}
				},
				"dtype": {
					"type": "DT_FLOAT"
				}
			}
		}, {
			"name": "ConstantFolding/PartitionedCall/split_77-folded-55",
			"op": "Const",
			"attr": {
				"dtype": {
					"type": "DT_FLOAT"
				},
				"value": {
					"tensor": {
						"dtype": "DT_FLOAT",
						"tensorShape": {
							"dim": [{
								"size": "3"
							}, {
								"size": "3"
							}, {
								"size": "1"
							}, {
								"size": "1"
							}]
						}
					}
				}
			}
		}, {
			"name": "ConstantFolding/PartitionedCall/split_77-folded-56",
			"op": "Const",
			"attr": {
				"value": {
					"tensor": {
						"dtype": "DT_FLOAT",
						"tensorShape": {
							"dim": [{
								"size": "3"
							}, {
								"size": "3"
							}, {
								"size": "1"
							}, {
								"size": "1"
							}]
						}
					}
				},
				"dtype": {
					"type": "DT_FLOAT"
				}
			}
		}, {
			"name": "ConstantFolding/PartitionedCall/split_77-folded-57",
			"op": "Const",
			"attr": {
				"dtype": {
					"type": "DT_FLOAT"
				},
				"value": {
					"tensor": {
						"dtype": "DT_FLOAT",
						"tensorShape": {
							"dim": [{
								"size": "3"
							}, {
								"size": "3"
							}, {
								"size": "1"
							}, {
								"size": "1"
							}]
						}
					}
				}
			}
		}, {
			"name": "ConstantFolding/PartitionedCall/split_77-folded-58",
			"op": "Const",
			"attr": {
				"value": {
					"tensor": {
						"dtype": "DT_FLOAT",
						"tensorShape": {
							"dim": [{
								"size": "3"
							}, {
								"size": "3"
							}, {
								"size": "1"
							}, {
								"size": "1"
							}]
						}
					}
				},
				"dtype": {
					"type": "DT_FLOAT"
				}
			}
		}, {
			"name": "ConstantFolding/PartitionedCall/split_77-folded-59",
			"op": "Const",
			"attr": {
				"dtype": {
					"type": "DT_FLOAT"
				},
				"value": {
					"tensor": {
						"dtype": "DT_FLOAT",
						"tensorShape": {
							"dim": [{
								"size": "3"
							}, {
								"size": "3"
							}, {
								"size": "1"
							}, {
								"size": "1"
							}]
						}
					}
				}
			}
		}, {
			"name": "ConstantFolding/PartitionedCall/split_77-folded-60",
			"op": "Const",
			"attr": {
				"dtype": {
					"type": "DT_FLOAT"
				},
				"value": {
					"tensor": {
						"dtype": "DT_FLOAT",
						"tensorShape": {
							"dim": [{
								"size": "3"
							}, {
								"size": "3"
							}, {
								"size": "1"
							}, {
								"size": "1"
							}]
						}
					}
				}
			}
		}, {
			"name": "ConstantFolding/PartitionedCall/split_77-folded-61",
			"op": "Const",
			"attr": {
				"dtype": {
					"type": "DT_FLOAT"
				},
				"value": {
					"tensor": {
						"dtype": "DT_FLOAT",
						"tensorShape": {
							"dim": [{
								"size": "3"
							}, {
								"size": "3"
							}, {
								"size": "1"
							}, {
								"size": "1"
							}]
						}
					}
				}
			}
		}, {
			"name": "ConstantFolding/PartitionedCall/split_77-folded-62",
			"op": "Const",
			"attr": {
				"dtype": {
					"type": "DT_FLOAT"
				},
				"value": {
					"tensor": {
						"dtype": "DT_FLOAT",
						"tensorShape": {
							"dim": [{
								"size": "3"
							}, {
								"size": "3"
							}, {
								"size": "1"
							}, {
								"size": "1"
							}]
						}
					}
				}
			}
		}, {
			"name": "ConstantFolding/PartitionedCall/split_77-folded-63",
			"op": "Const",
			"attr": {
				"dtype": {
					"type": "DT_FLOAT"
				},
				"value": {
					"tensor": {
						"dtype": "DT_FLOAT",
						"tensorShape": {
							"dim": [{
								"size": "3"
							}, {
								"size": "3"
							}, {
								"size": "1"
							}, {
								"size": "1"
							}]
						}
					}
				}
			}
		}, {
			"name": "ConstantFolding/PartitionedCall/split_77-folded-64",
			"op": "Const",
			"attr": {
				"dtype": {
					"type": "DT_FLOAT"
				},
				"value": {
					"tensor": {
						"dtype": "DT_FLOAT",
						"tensorShape": {
							"dim": [{
								"size": "3"
							}, {
								"size": "3"
							}, {
								"size": "1"
							}, {
								"size": "1"
							}]
						}
					}
				}
			}
		}, {
			"name": "ConstantFolding/PartitionedCall/split_77-folded-65",
			"op": "Const",
			"attr": {
				"value": {
					"tensor": {
						"dtype": "DT_FLOAT",
						"tensorShape": {
							"dim": [{
								"size": "3"
							}, {
								"size": "3"
							}, {
								"size": "1"
							}, {
								"size": "1"
							}]
						}
					}
				},
				"dtype": {
					"type": "DT_FLOAT"
				}
			}
		}, {
			"name": "ConstantFolding/PartitionedCall/split_77-folded-66",
			"op": "Const",
			"attr": {
				"value": {
					"tensor": {
						"dtype": "DT_FLOAT",
						"tensorShape": {
							"dim": [{
								"size": "3"
							}, {
								"size": "3"
							}, {
								"size": "1"
							}, {
								"size": "1"
							}]
						}
					}
				},
				"dtype": {
					"type": "DT_FLOAT"
				}
			}
		}, {
			"name": "ConstantFolding/PartitionedCall/split_77-folded-67",
			"op": "Const",
			"attr": {
				"value": {
					"tensor": {
						"dtype": "DT_FLOAT",
						"tensorShape": {
							"dim": [{
								"size": "3"
							}, {
								"size": "3"
							}, {
								"size": "1"
							}, {
								"size": "1"
							}]
						}
					}
				},
				"dtype": {
					"type": "DT_FLOAT"
				}
			}
		}, {
			"name": "ConstantFolding/PartitionedCall/split_77-folded-68",
			"op": "Const",
			"attr": {
				"dtype": {
					"type": "DT_FLOAT"
				},
				"value": {
					"tensor": {
						"dtype": "DT_FLOAT",
						"tensorShape": {
							"dim": [{
								"size": "3"
							}, {
								"size": "3"
							}, {
								"size": "1"
							}, {
								"size": "1"
							}]
						}
					}
				}
			}
		}, {
			"name": "ConstantFolding/PartitionedCall/split_77-folded-69",
			"op": "Const",
			"attr": {
				"value": {
					"tensor": {
						"dtype": "DT_FLOAT",
						"tensorShape": {
							"dim": [{
								"size": "3"
							}, {
								"size": "3"
							}, {
								"size": "1"
							}, {
								"size": "1"
							}]
						}
					}
				},
				"dtype": {
					"type": "DT_FLOAT"
				}
			}
		}, {
			"name": "ConstantFolding/PartitionedCall/split_77-folded-70",
			"op": "Const",
			"attr": {
				"dtype": {
					"type": "DT_FLOAT"
				},
				"value": {
					"tensor": {
						"dtype": "DT_FLOAT",
						"tensorShape": {
							"dim": [{
								"size": "3"
							}, {
								"size": "3"
							}, {
								"size": "1"
							}, {
								"size": "1"
							}]
						}
					}
				}
			}
		}, {
			"name": "ConstantFolding/PartitionedCall/split_77-folded-71",
			"op": "Const",
			"attr": {
				"value": {
					"tensor": {
						"dtype": "DT_FLOAT",
						"tensorShape": {
							"dim": [{
								"size": "3"
							}, {
								"size": "3"
							}, {
								"size": "1"
							}, {
								"size": "1"
							}]
						}
					}
				},
				"dtype": {
					"type": "DT_FLOAT"
				}
			}
		}, {
			"name": "ConstantFolding/PartitionedCall/split_77-folded-72",
			"op": "Const",
			"attr": {
				"value": {
					"tensor": {
						"dtype": "DT_FLOAT",
						"tensorShape": {
							"dim": [{
								"size": "3"
							}, {
								"size": "3"
							}, {
								"size": "1"
							}, {
								"size": "1"
							}]
						}
					}
				},
				"dtype": {
					"type": "DT_FLOAT"
				}
			}
		}, {
			"name": "ConstantFolding/PartitionedCall/split_77-folded-73",
			"op": "Const",
			"attr": {
				"dtype": {
					"type": "DT_FLOAT"
				},
				"value": {
					"tensor": {
						"dtype": "DT_FLOAT",
						"tensorShape": {
							"dim": [{
								"size": "3"
							}, {
								"size": "3"
							}, {
								"size": "1"
							}, {
								"size": "1"
							}]
						}
					}
				}
			}
		}, {
			"name": "ConstantFolding/PartitionedCall/split_77-folded-74",
			"op": "Const",
			"attr": {
				"value": {
					"tensor": {
						"dtype": "DT_FLOAT",
						"tensorShape": {
							"dim": [{
								"size": "3"
							}, {
								"size": "3"
							}, {
								"size": "1"
							}, {
								"size": "1"
							}]
						}
					}
				},
				"dtype": {
					"type": "DT_FLOAT"
				}
			}
		}, {
			"name": "ConstantFolding/PartitionedCall/split_77-folded-75",
			"op": "Const",
			"attr": {
				"value": {
					"tensor": {
						"dtype": "DT_FLOAT",
						"tensorShape": {
							"dim": [{
								"size": "3"
							}, {
								"size": "3"
							}, {
								"size": "1"
							}, {
								"size": "1"
							}]
						}
					}
				},
				"dtype": {
					"type": "DT_FLOAT"
				}
			}
		}, {
			"name": "ConstantFolding/PartitionedCall/split_77-folded-76",
			"op": "Const",
			"attr": {
				"value": {
					"tensor": {
						"dtype": "DT_FLOAT",
						"tensorShape": {
							"dim": [{
								"size": "3"
							}, {
								"size": "3"
							}, {
								"size": "1"
							}, {
								"size": "1"
							}]
						}
					}
				},
				"dtype": {
					"type": "DT_FLOAT"
				}
			}
		}, {
			"name": "ConstantFolding/PartitionedCall/split_77-folded-77",
			"op": "Const",
			"attr": {
				"dtype": {
					"type": "DT_FLOAT"
				},
				"value": {
					"tensor": {
						"dtype": "DT_FLOAT",
						"tensorShape": {
							"dim": [{
								"size": "3"
							}, {
								"size": "3"
							}, {
								"size": "1"
							}, {
								"size": "1"
							}]
						}
					}
				}
			}
		}, {
			"name": "ConstantFolding/PartitionedCall/split_77-folded-78",
			"op": "Const",
			"attr": {
				"value": {
					"tensor": {
						"dtype": "DT_FLOAT",
						"tensorShape": {
							"dim": [{
								"size": "3"
							}, {
								"size": "3"
							}, {
								"size": "1"
							}, {
								"size": "1"
							}]
						}
					}
				},
				"dtype": {
					"type": "DT_FLOAT"
				}
			}
		}, {
			"name": "ConstantFolding/PartitionedCall/split_77-folded-79",
			"op": "Const",
			"attr": {
				"value": {
					"tensor": {
						"dtype": "DT_FLOAT",
						"tensorShape": {
							"dim": [{
								"size": "3"
							}, {
								"size": "3"
							}, {
								"size": "1"
							}, {
								"size": "1"
							}]
						}
					}
				},
				"dtype": {
					"type": "DT_FLOAT"
				}
			}
		}, {
			"name": "ConstantFolding/PartitionedCall/split_77-folded-80",
			"op": "Const",
			"attr": {
				"value": {
					"tensor": {
						"dtype": "DT_FLOAT",
						"tensorShape": {
							"dim": [{
								"size": "3"
							}, {
								"size": "3"
							}, {
								"size": "1"
							}, {
								"size": "1"
							}]
						}
					}
				},
				"dtype": {
					"type": "DT_FLOAT"
				}
			}
		}, {
			"name": "ConstantFolding/PartitionedCall/split_77-folded-81",
			"op": "Const",
			"attr": {
				"value": {
					"tensor": {
						"dtype": "DT_FLOAT",
						"tensorShape": {
							"dim": [{
								"size": "3"
							}, {
								"size": "3"
							}, {
								"size": "1"
							}, {
								"size": "1"
							}]
						}
					}
				},
				"dtype": {
					"type": "DT_FLOAT"
				}
			}
		}, {
			"name": "ConstantFolding/PartitionedCall/split_77-folded-82",
			"op": "Const",
			"attr": {
				"value": {
					"tensor": {
						"dtype": "DT_FLOAT",
						"tensorShape": {
							"dim": [{
								"size": "3"
							}, {
								"size": "3"
							}, {
								"size": "1"
							}, {
								"size": "1"
							}]
						}
					}
				},
				"dtype": {
					"type": "DT_FLOAT"
				}
			}
		}, {
			"name": "ConstantFolding/PartitionedCall/split_77-folded-83",
			"op": "Const",
			"attr": {
				"dtype": {
					"type": "DT_FLOAT"
				},
				"value": {
					"tensor": {
						"dtype": "DT_FLOAT",
						"tensorShape": {
							"dim": [{
								"size": "3"
							}, {
								"size": "3"
							}, {
								"size": "1"
							}, {
								"size": "1"
							}]
						}
					}
				}
			}
		}, {
			"name": "ConstantFolding/PartitionedCall/split_77-folded-84",
			"op": "Const",
			"attr": {
				"value": {
					"tensor": {
						"dtype": "DT_FLOAT",
						"tensorShape": {
							"dim": [{
								"size": "3"
							}, {
								"size": "3"
							}, {
								"size": "1"
							}, {
								"size": "1"
							}]
						}
					}
				},
				"dtype": {
					"type": "DT_FLOAT"
				}
			}
		}, {
			"name": "ConstantFolding/PartitionedCall/split_77-folded-85",
			"op": "Const",
			"attr": {
				"value": {
					"tensor": {
						"dtype": "DT_FLOAT",
						"tensorShape": {
							"dim": [{
								"size": "3"
							}, {
								"size": "3"
							}, {
								"size": "1"
							}, {
								"size": "1"
							}]
						}
					}
				},
				"dtype": {
					"type": "DT_FLOAT"
				}
			}
		}, {
			"name": "ConstantFolding/PartitionedCall/split_77-folded-86",
			"op": "Const",
			"attr": {
				"dtype": {
					"type": "DT_FLOAT"
				},
				"value": {
					"tensor": {
						"dtype": "DT_FLOAT",
						"tensorShape": {
							"dim": [{
								"size": "3"
							}, {
								"size": "3"
							}, {
								"size": "1"
							}, {
								"size": "1"
							}]
						}
					}
				}
			}
		}, {
			"name": "ConstantFolding/PartitionedCall/split_77-folded-87",
			"op": "Const",
			"attr": {
				"value": {
					"tensor": {
						"dtype": "DT_FLOAT",
						"tensorShape": {
							"dim": [{
								"size": "3"
							}, {
								"size": "3"
							}, {
								"size": "1"
							}, {
								"size": "1"
							}]
						}
					}
				},
				"dtype": {
					"type": "DT_FLOAT"
				}
			}
		}, {
			"name": "ConstantFolding/PartitionedCall/split_77-folded-88",
			"op": "Const",
			"attr": {
				"value": {
					"tensor": {
						"dtype": "DT_FLOAT",
						"tensorShape": {
							"dim": [{
								"size": "3"
							}, {
								"size": "3"
							}, {
								"size": "1"
							}, {
								"size": "1"
							}]
						}
					}
				},
				"dtype": {
					"type": "DT_FLOAT"
				}
			}
		}, {
			"name": "ConstantFolding/PartitionedCall/split_77-folded-89",
			"op": "Const",
			"attr": {
				"value": {
					"tensor": {
						"dtype": "DT_FLOAT",
						"tensorShape": {
							"dim": [{
								"size": "3"
							}, {
								"size": "3"
							}, {
								"size": "1"
							}, {
								"size": "1"
							}]
						}
					}
				},
				"dtype": {
					"type": "DT_FLOAT"
				}
			}
		}, {
			"name": "ConstantFolding/PartitionedCall/split_77-folded-90",
			"op": "Const",
			"attr": {
				"value": {
					"tensor": {
						"dtype": "DT_FLOAT",
						"tensorShape": {
							"dim": [{
								"size": "3"
							}, {
								"size": "3"
							}, {
								"size": "1"
							}, {
								"size": "1"
							}]
						}
					}
				},
				"dtype": {
					"type": "DT_FLOAT"
				}
			}
		}, {
			"name": "ConstantFolding/PartitionedCall/split_77-folded-91",
			"op": "Const",
			"attr": {
				"dtype": {
					"type": "DT_FLOAT"
				},
				"value": {
					"tensor": {
						"dtype": "DT_FLOAT",
						"tensorShape": {
							"dim": [{
								"size": "3"
							}, {
								"size": "3"
							}, {
								"size": "1"
							}, {
								"size": "1"
							}]
						}
					}
				}
			}
		}, {
			"name": "ConstantFolding/PartitionedCall/split_77-folded-92",
			"op": "Const",
			"attr": {
				"dtype": {
					"type": "DT_FLOAT"
				},
				"value": {
					"tensor": {
						"dtype": "DT_FLOAT",
						"tensorShape": {
							"dim": [{
								"size": "3"
							}, {
								"size": "3"
							}, {
								"size": "1"
							}, {
								"size": "1"
							}]
						}
					}
				}
			}
		}, {
			"name": "ConstantFolding/PartitionedCall/split_77-folded-93",
			"op": "Const",
			"attr": {
				"value": {
					"tensor": {
						"dtype": "DT_FLOAT",
						"tensorShape": {
							"dim": [{
								"size": "3"
							}, {
								"size": "3"
							}, {
								"size": "1"
							}, {
								"size": "1"
							}]
						}
					}
				},
				"dtype": {
					"type": "DT_FLOAT"
				}
			}
		}, {
			"name": "ConstantFolding/PartitionedCall/split_77-folded-94",
			"op": "Const",
			"attr": {
				"dtype": {
					"type": "DT_FLOAT"
				},
				"value": {
					"tensor": {
						"dtype": "DT_FLOAT",
						"tensorShape": {
							"dim": [{
								"size": "3"
							}, {
								"size": "3"
							}, {
								"size": "1"
							}, {
								"size": "1"
							}]
						}
					}
				}
			}
		}, {
			"name": "PartitionedCall/split_78/split_dim",
			"op": "Const",
			"attr": {
				"dtype": {
					"type": "DT_INT32"
				},
				"value": {
					"tensor": {
						"dtype": "DT_INT32",
						"tensorShape": {}
					}
				}
			}
		}, {
			"name": "PartitionedCall/Const_142",
			"op": "Const",
			"attr": {
				"dtype": {
					"type": "DT_INT32"
				},
				"value": {
					"tensor": {
						"dtype": "DT_INT32",
						"tensorShape": {
							"dim": [{
								"size": "4"
							}, {
								"size": "2"
							}]
						}
					}
				}
			}
		}, {
			"name": "PartitionedCall/transpose_185/perm",
			"op": "Const",
			"attr": {
				"value": {
					"tensor": {
						"dtype": "DT_INT32",
						"tensorShape": {
							"dim": [{
								"size": "4"
							}]
						}
					}
				},
				"dtype": {
					"type": "DT_INT32"
				}
			}
		}, {
			"name": "ConstantFolding/PartitionedCall/split_77-folded-95",
			"op": "Const",
			"attr": {
				"dtype": {
					"type": "DT_FLOAT"
				},
				"value": {
					"tensor": {
						"dtype": "DT_FLOAT",
						"tensorShape": {
							"dim": [{
								"size": "3"
							}, {
								"size": "3"
							}, {
								"size": "1"
							}, {
								"size": "1"
							}]
						}
					}
				}
			}
		}, {
			"name": "PartitionedCall/concat_58/axis",
			"op": "Const",
			"attr": {
				"value": {
					"tensor": {
						"dtype": "DT_INT32",
						"tensorShape": {}
					}
				},
				"dtype": {
					"type": "DT_INT32"
				}
			}
		}, {
			"name": "unknown_126",
			"op": "Const",
			"attr": {
				"value": {
					"tensor": {
						"dtype": "DT_FLOAT",
						"tensorShape": {
							"dim": [{
								"size": "96"
							}]
						}
					}
				},
				"dtype": {
					"type": "DT_FLOAT"
				}
			}
		}, {
			"name": "PartitionedCall/transpose_186/perm",
			"op": "Const",
			"attr": {
				"value": {
					"tensor": {
						"dtype": "DT_INT32",
						"tensorShape": {
							"dim": [{
								"size": "4"
							}]
						}
					}
				},
				"dtype": {
					"type": "DT_INT32"
				}
			}
		}, {
			"name": "PartitionedCall/transpose_188/perm",
			"op": "Const",
			"attr": {
				"value": {
					"tensor": {
						"dtype": "DT_INT32",
						"tensorShape": {
							"dim": [{
								"size": "4"
							}]
						}
					}
				},
				"dtype": {
					"type": "DT_INT32"
				}
			}
		}, {
			"name": "PartitionedCall/split_79",
			"op": "Const",
			"attr": {
				"dtype": {
					"type": "DT_FLOAT"
				},
				"value": {
					"tensor": {
						"dtype": "DT_FLOAT",
						"tensorShape": {
							"dim": [{
								"size": "1"
							}, {
								"size": "1"
							}, {
								"size": "96"
							}, {
								"size": "96"
							}]
						}
					}
				}
			}
		}, {
			"name": "unknown_128",
			"op": "Const",
			"attr": {
				"value": {
					"tensor": {
						"dtype": "DT_FLOAT",
						"tensorShape": {
							"dim": [{
								"size": "96"
							}]
						}
					}
				},
				"dtype": {
					"type": "DT_FLOAT"
				}
			}
		}, {
			"name": "PartitionedCall/transpose_189/perm",
			"op": "Const",
			"attr": {
				"value": {
					"tensor": {
						"dtype": "DT_INT32",
						"tensorShape": {
							"dim": [{
								"size": "4"
							}]
						}
					}
				},
				"dtype": {
					"type": "DT_INT32"
				}
			}
		}, {
			"name": "PartitionedCall/Const_146",
			"op": "Const",
			"attr": {
				"value": {
					"tensor": {
						"dtype": "DT_INT32",
						"tensorShape": {
							"dim": [{
								"size": "4"
							}, {
								"size": "2"
							}]
						}
					}
				},
				"dtype": {
					"type": "DT_INT32"
				}
			}
		}, {
			"name": "PartitionedCall/transpose_191/perm",
			"op": "Const",
			"attr": {
				"value": {
					"tensor": {
						"dtype": "DT_INT32",
						"tensorShape": {
							"dim": [{
								"size": "4"
							}]
						}
					}
				},
				"dtype": {
					"type": "DT_INT32"
				}
			}
		}, {
			"name": "ConstantFolding/PartitionedCall/split_80-folded-95",
			"op": "Const",
			"attr": {
				"dtype": {
					"type": "DT_FLOAT"
				},
				"value": {
					"tensor": {
						"dtype": "DT_FLOAT",
						"tensorShape": {
							"dim": [{
								"size": "3"
							}, {
								"size": "3"
							}, {
								"size": "1"
							}, {
								"size": "1"
							}]
						}
					}
				}
			}
		}, {
			"name": "PartitionedCall/concat_60/axis",
			"op": "Const",
			"attr": {
				"value": {
					"tensor": {
						"dtype": "DT_INT32",
						"tensorShape": {}
					}
				},
				"dtype": {
					"type": "DT_INT32"
				}
			}
		}, {
			"name": "unknown_130",
			"op": "Const",
			"attr": {
				"dtype": {
					"type": "DT_FLOAT"
				},
				"value": {
					"tensor": {
						"dtype": "DT_FLOAT",
						"tensorShape": {
							"dim": [{
								"size": "96"
							}]
						}
					}
				}
			}
		}, {
			"name": "PartitionedCall/transpose_192/perm",
			"op": "Const",
			"attr": {
				"value": {
					"tensor": {
						"dtype": "DT_INT32",
						"tensorShape": {
							"dim": [{
								"size": "4"
							}]
						}
					}
				},
				"dtype": {
					"type": "DT_INT32"
				}
			}
		}, {
			"name": "PartitionedCall/transpose_194/perm",
			"op": "Const",
			"attr": {
				"value": {
					"tensor": {
						"dtype": "DT_INT32",
						"tensorShape": {
							"dim": [{
								"size": "4"
							}]
						}
					}
				},
				"dtype": {
					"type": "DT_INT32"
				}
			}
		}, {
			"name": "PartitionedCall/split_82",
			"op": "Const",
			"attr": {
				"value": {
					"tensor": {
						"dtype": "DT_FLOAT",
						"tensorShape": {
							"dim": [{
								"size": "1"
							}, {
								"size": "1"
							}, {
								"size": "96"
							}, {
								"size": "96"
							}]
						}
					}
				},
				"dtype": {
					"type": "DT_FLOAT"
				}
			}
		}, {
			"name": "unknown_132",
			"op": "Const",
			"attr": {
				"value": {
					"tensor": {
						"dtype": "DT_FLOAT",
						"tensorShape": {
							"dim": [{
								"size": "96"
							}]
						}
					}
				},
				"dtype": {
					"type": "DT_FLOAT"
				}
			}
		}, {
			"name": "PartitionedCall/transpose_195/perm",
			"op": "Const",
			"attr": {
				"dtype": {
					"type": "DT_INT32"
				},
				"value": {
					"tensor": {
						"dtype": "DT_INT32",
						"tensorShape": {
							"dim": [{
								"size": "4"
							}]
						}
					}
				}
			}
		}, {
			"name": "PartitionedCall/transpose_197/perm",
			"op": "Const",
			"attr": {
				"dtype": {
					"type": "DT_INT32"
				},
				"value": {
					"tensor": {
						"dtype": "DT_INT32",
						"tensorShape": {
							"dim": [{
								"size": "4"
							}]
						}
					}
				}
			}
		}, {
			"name": "PartitionedCall/split_83",
			"op": "Const",
			"attr": {
				"value": {
					"tensor": {
						"dtype": "DT_FLOAT",
						"tensorShape": {
							"dim": [{
								"size": "1"
							}, {
								"size": "1"
							}, {
								"size": "96"
							}, {
								"size": "33"
							}]
						}
					}
				},
				"dtype": {
					"type": "DT_FLOAT"
				}
			}
		}, {
			"name": "unknown_134",
			"op": "Const",
			"attr": {
				"value": {
					"tensor": {
						"dtype": "DT_FLOAT",
						"tensorShape": {
							"dim": [{
								"size": "33"
							}]
						}
					}
				},
				"dtype": {
					"type": "DT_FLOAT"
				}
			}
		}, {
			"name": "PartitionedCall/transpose_198/perm",
			"op": "Const",
			"attr": {
				"value": {
					"tensor": {
						"dtype": "DT_INT32",
						"tensorShape": {
							"dim": [{
								"size": "4"
							}]
						}
					}
				},
				"dtype": {
					"type": "DT_INT32"
				}
			}
		}, {
			"name": "PartitionedCall/Const_151",
			"op": "Const",
			"attr": {
				"value": {
					"tensor": {
						"dtype": "DT_INT32",
						"tensorShape": {
							"dim": [{
								"size": "2"
							}]
						}
					}
				},
				"dtype": {
					"type": "DT_INT32"
				}
			}
		}, {
			"name": "PartitionedCall/onnx_tf_prefix_Split_297/split_dim",
			"op": "Const",
			"attr": {
				"dtype": {
					"type": "DT_INT32"
				},
				"value": {
					"tensor": {
						"dtype": "DT_INT32",
						"tensorShape": {}
					}
				}
			}
		}, {
			"name": "PartitionedCall/Where_33",
			"op": "Const",
			"attr": {
				"value": {
					"tensor": {
						"dtype": "DT_INT64",
						"tensorShape": {
							"dim": [{}, {
								"size": "1"
							}]
						}
					}
				},
				"dtype": {
					"type": "DT_INT64"
				}
			}
		}, {
			"name": "PartitionedCall/Cast_41",
			"op": "Const",
			"attr": {
				"value": {
					"tensor": {
						"dtype": "DT_INT64",
						"tensorShape": {
							"dim": [{
								"size": "1"
							}]
						}
					}
				},
				"dtype": {
					"type": "DT_INT64"
				}
			}
		}, {
			"name": "PartitionedCall/GatherV2_33",
			"op": "Const",
			"attr": {
				"value": {
					"tensor": {
						"dtype": "DT_INT64",
						"tensorShape": {
							"dim": [{}]
						}
					}
				},
				"dtype": {
					"type": "DT_INT64"
				}
			}
		}, {
			"name": "PartitionedCall/zeros_33",
			"op": "Const",
			"attr": {
				"value": {
					"tensor": {
						"dtype": "DT_INT64",
						"tensorShape": {}
					}
				},
				"dtype": {
					"type": "DT_INT64"
				}
			}
		}, {
			"name": "PartitionedCall/onnx_tf_prefix_Transpose_304/perm",
			"op": "Const",
			"attr": {
				"value": {
					"tensor": {
						"dtype": "DT_INT32",
						"tensorShape": {
							"dim": [{
								"size": "3"
							}]
						}
					}
				},
				"dtype": {
					"type": "DT_INT32"
				}
			}
		}, {
			"name": "ConstantFolding/PartitionedCall/split_87-folded-0",
			"op": "Const",
			"attr": {
				"value": {
					"tensor": {
						"dtype": "DT_FLOAT",
						"tensorShape": {
							"dim": [{
								"size": "3"
							}, {
								"size": "3"
							}, {
								"size": "1"
							}, {
								"size": "1"
							}]
						}
					}
				},
				"dtype": {
					"type": "DT_FLOAT"
				}
			}
		}, {
			"name": "ConstantFolding/PartitionedCall/split_87-folded-1",
			"op": "Const",
			"attr": {
				"value": {
					"tensor": {
						"dtype": "DT_FLOAT",
						"tensorShape": {
							"dim": [{
								"size": "3"
							}, {
								"size": "3"
							}, {
								"size": "1"
							}, {
								"size": "1"
							}]
						}
					}
				},
				"dtype": {
					"type": "DT_FLOAT"
				}
			}
		}, {
			"name": "ConstantFolding/PartitionedCall/split_87-folded-2",
			"op": "Const",
			"attr": {
				"dtype": {
					"type": "DT_FLOAT"
				},
				"value": {
					"tensor": {
						"dtype": "DT_FLOAT",
						"tensorShape": {
							"dim": [{
								"size": "3"
							}, {
								"size": "3"
							}, {
								"size": "1"
							}, {
								"size": "1"
							}]
						}
					}
				}
			}
		}, {
			"name": "ConstantFolding/PartitionedCall/split_87-folded-3",
			"op": "Const",
			"attr": {
				"value": {
					"tensor": {
						"dtype": "DT_FLOAT",
						"tensorShape": {
							"dim": [{
								"size": "3"
							}, {
								"size": "3"
							}, {
								"size": "1"
							}, {
								"size": "1"
							}]
						}
					}
				},
				"dtype": {
					"type": "DT_FLOAT"
				}
			}
		}, {
			"name": "ConstantFolding/PartitionedCall/split_87-folded-4",
			"op": "Const",
			"attr": {
				"value": {
					"tensor": {
						"dtype": "DT_FLOAT",
						"tensorShape": {
							"dim": [{
								"size": "3"
							}, {
								"size": "3"
							}, {
								"size": "1"
							}, {
								"size": "1"
							}]
						}
					}
				},
				"dtype": {
					"type": "DT_FLOAT"
				}
			}
		}, {
			"name": "ConstantFolding/PartitionedCall/split_87-folded-5",
			"op": "Const",
			"attr": {
				"dtype": {
					"type": "DT_FLOAT"
				},
				"value": {
					"tensor": {
						"dtype": "DT_FLOAT",
						"tensorShape": {
							"dim": [{
								"size": "3"
							}, {
								"size": "3"
							}, {
								"size": "1"
							}, {
								"size": "1"
							}]
						}
					}
				}
			}
		}, {
			"name": "ConstantFolding/PartitionedCall/split_87-folded-6",
			"op": "Const",
			"attr": {
				"dtype": {
					"type": "DT_FLOAT"
				},
				"value": {
					"tensor": {
						"dtype": "DT_FLOAT",
						"tensorShape": {
							"dim": [{
								"size": "3"
							}, {
								"size": "3"
							}, {
								"size": "1"
							}, {
								"size": "1"
							}]
						}
					}
				}
			}
		}, {
			"name": "ConstantFolding/PartitionedCall/split_87-folded-7",
			"op": "Const",
			"attr": {
				"value": {
					"tensor": {
						"dtype": "DT_FLOAT",
						"tensorShape": {
							"dim": [{
								"size": "3"
							}, {
								"size": "3"
							}, {
								"size": "1"
							}, {
								"size": "1"
							}]
						}
					}
				},
				"dtype": {
					"type": "DT_FLOAT"
				}
			}
		}, {
			"name": "ConstantFolding/PartitionedCall/split_87-folded-8",
			"op": "Const",
			"attr": {
				"dtype": {
					"type": "DT_FLOAT"
				},
				"value": {
					"tensor": {
						"dtype": "DT_FLOAT",
						"tensorShape": {
							"dim": [{
								"size": "3"
							}, {
								"size": "3"
							}, {
								"size": "1"
							}, {
								"size": "1"
							}]
						}
					}
				}
			}
		}, {
			"name": "ConstantFolding/PartitionedCall/split_87-folded-9",
			"op": "Const",
			"attr": {
				"dtype": {
					"type": "DT_FLOAT"
				},
				"value": {
					"tensor": {
						"dtype": "DT_FLOAT",
						"tensorShape": {
							"dim": [{
								"size": "3"
							}, {
								"size": "3"
							}, {
								"size": "1"
							}, {
								"size": "1"
							}]
						}
					}
				}
			}
		}, {
			"name": "ConstantFolding/PartitionedCall/split_87-folded-10",
			"op": "Const",
			"attr": {
				"value": {
					"tensor": {
						"dtype": "DT_FLOAT",
						"tensorShape": {
							"dim": [{
								"size": "3"
							}, {
								"size": "3"
							}, {
								"size": "1"
							}, {
								"size": "1"
							}]
						}
					}
				},
				"dtype": {
					"type": "DT_FLOAT"
				}
			}
		}, {
			"name": "ConstantFolding/PartitionedCall/split_87-folded-11",
			"op": "Const",
			"attr": {
				"dtype": {
					"type": "DT_FLOAT"
				},
				"value": {
					"tensor": {
						"dtype": "DT_FLOAT",
						"tensorShape": {
							"dim": [{
								"size": "3"
							}, {
								"size": "3"
							}, {
								"size": "1"
							}, {
								"size": "1"
							}]
						}
					}
				}
			}
		}, {
			"name": "ConstantFolding/PartitionedCall/split_87-folded-12",
			"op": "Const",
			"attr": {
				"value": {
					"tensor": {
						"dtype": "DT_FLOAT",
						"tensorShape": {
							"dim": [{
								"size": "3"
							}, {
								"size": "3"
							}, {
								"size": "1"
							}, {
								"size": "1"
							}]
						}
					}
				},
				"dtype": {
					"type": "DT_FLOAT"
				}
			}
		}, {
			"name": "ConstantFolding/PartitionedCall/split_87-folded-13",
			"op": "Const",
			"attr": {
				"dtype": {
					"type": "DT_FLOAT"
				},
				"value": {
					"tensor": {
						"dtype": "DT_FLOAT",
						"tensorShape": {
							"dim": [{
								"size": "3"
							}, {
								"size": "3"
							}, {
								"size": "1"
							}, {
								"size": "1"
							}]
						}
					}
				}
			}
		}, {
			"name": "ConstantFolding/PartitionedCall/split_87-folded-14",
			"op": "Const",
			"attr": {
				"value": {
					"tensor": {
						"dtype": "DT_FLOAT",
						"tensorShape": {
							"dim": [{
								"size": "3"
							}, {
								"size": "3"
							}, {
								"size": "1"
							}, {
								"size": "1"
							}]
						}
					}
				},
				"dtype": {
					"type": "DT_FLOAT"
				}
			}
		}, {
			"name": "ConstantFolding/PartitionedCall/split_87-folded-15",
			"op": "Const",
			"attr": {
				"dtype": {
					"type": "DT_FLOAT"
				},
				"value": {
					"tensor": {
						"dtype": "DT_FLOAT",
						"tensorShape": {
							"dim": [{
								"size": "3"
							}, {
								"size": "3"
							}, {
								"size": "1"
							}, {
								"size": "1"
							}]
						}
					}
				}
			}
		}, {
			"name": "ConstantFolding/PartitionedCall/split_87-folded-16",
			"op": "Const",
			"attr": {
				"value": {
					"tensor": {
						"dtype": "DT_FLOAT",
						"tensorShape": {
							"dim": [{
								"size": "3"
							}, {
								"size": "3"
							}, {
								"size": "1"
							}, {
								"size": "1"
							}]
						}
					}
				},
				"dtype": {
					"type": "DT_FLOAT"
				}
			}
		}, {
			"name": "ConstantFolding/PartitionedCall/split_87-folded-17",
			"op": "Const",
			"attr": {
				"value": {
					"tensor": {
						"dtype": "DT_FLOAT",
						"tensorShape": {
							"dim": [{
								"size": "3"
							}, {
								"size": "3"
							}, {
								"size": "1"
							}, {
								"size": "1"
							}]
						}
					}
				},
				"dtype": {
					"type": "DT_FLOAT"
				}
			}
		}, {
			"name": "ConstantFolding/PartitionedCall/split_87-folded-18",
			"op": "Const",
			"attr": {
				"dtype": {
					"type": "DT_FLOAT"
				},
				"value": {
					"tensor": {
						"dtype": "DT_FLOAT",
						"tensorShape": {
							"dim": [{
								"size": "3"
							}, {
								"size": "3"
							}, {
								"size": "1"
							}, {
								"size": "1"
							}]
						}
					}
				}
			}
		}, {
			"name": "ConstantFolding/PartitionedCall/split_87-folded-19",
			"op": "Const",
			"attr": {
				"value": {
					"tensor": {
						"dtype": "DT_FLOAT",
						"tensorShape": {
							"dim": [{
								"size": "3"
							}, {
								"size": "3"
							}, {
								"size": "1"
							}, {
								"size": "1"
							}]
						}
					}
				},
				"dtype": {
					"type": "DT_FLOAT"
				}
			}
		}, {
			"name": "ConstantFolding/PartitionedCall/split_87-folded-20",
			"op": "Const",
			"attr": {
				"dtype": {
					"type": "DT_FLOAT"
				},
				"value": {
					"tensor": {
						"dtype": "DT_FLOAT",
						"tensorShape": {
							"dim": [{
								"size": "3"
							}, {
								"size": "3"
							}, {
								"size": "1"
							}, {
								"size": "1"
							}]
						}
					}
				}
			}
		}, {
			"name": "ConstantFolding/PartitionedCall/split_87-folded-21",
			"op": "Const",
			"attr": {
				"value": {
					"tensor": {
						"dtype": "DT_FLOAT",
						"tensorShape": {
							"dim": [{
								"size": "3"
							}, {
								"size": "3"
							}, {
								"size": "1"
							}, {
								"size": "1"
							}]
						}
					}
				},
				"dtype": {
					"type": "DT_FLOAT"
				}
			}
		}, {
			"name": "ConstantFolding/PartitionedCall/split_87-folded-22",
			"op": "Const",
			"attr": {
				"dtype": {
					"type": "DT_FLOAT"
				},
				"value": {
					"tensor": {
						"dtype": "DT_FLOAT",
						"tensorShape": {
							"dim": [{
								"size": "3"
							}, {
								"size": "3"
							}, {
								"size": "1"
							}, {
								"size": "1"
							}]
						}
					}
				}
			}
		}, {
			"name": "ConstantFolding/PartitionedCall/split_87-folded-23",
			"op": "Const",
			"attr": {
				"value": {
					"tensor": {
						"dtype": "DT_FLOAT",
						"tensorShape": {
							"dim": [{
								"size": "3"
							}, {
								"size": "3"
							}, {
								"size": "1"
							}, {
								"size": "1"
							}]
						}
					}
				},
				"dtype": {
					"type": "DT_FLOAT"
				}
			}
		}, {
			"name": "ConstantFolding/PartitionedCall/split_87-folded-24",
			"op": "Const",
			"attr": {
				"value": {
					"tensor": {
						"dtype": "DT_FLOAT",
						"tensorShape": {
							"dim": [{
								"size": "3"
							}, {
								"size": "3"
							}, {
								"size": "1"
							}, {
								"size": "1"
							}]
						}
					}
				},
				"dtype": {
					"type": "DT_FLOAT"
				}
			}
		}, {
			"name": "ConstantFolding/PartitionedCall/split_87-folded-25",
			"op": "Const",
			"attr": {
				"dtype": {
					"type": "DT_FLOAT"
				},
				"value": {
					"tensor": {
						"dtype": "DT_FLOAT",
						"tensorShape": {
							"dim": [{
								"size": "3"
							}, {
								"size": "3"
							}, {
								"size": "1"
							}, {
								"size": "1"
							}]
						}
					}
				}
			}
		}, {
			"name": "ConstantFolding/PartitionedCall/split_87-folded-26",
			"op": "Const",
			"attr": {
				"dtype": {
					"type": "DT_FLOAT"
				},
				"value": {
					"tensor": {
						"dtype": "DT_FLOAT",
						"tensorShape": {
							"dim": [{
								"size": "3"
							}, {
								"size": "3"
							}, {
								"size": "1"
							}, {
								"size": "1"
							}]
						}
					}
				}
			}
		}, {
			"name": "ConstantFolding/PartitionedCall/split_87-folded-27",
			"op": "Const",
			"attr": {
				"dtype": {
					"type": "DT_FLOAT"
				},
				"value": {
					"tensor": {
						"dtype": "DT_FLOAT",
						"tensorShape": {
							"dim": [{
								"size": "3"
							}, {
								"size": "3"
							}, {
								"size": "1"
							}, {
								"size": "1"
							}]
						}
					}
				}
			}
		}, {
			"name": "ConstantFolding/PartitionedCall/split_87-folded-28",
			"op": "Const",
			"attr": {
				"value": {
					"tensor": {
						"dtype": "DT_FLOAT",
						"tensorShape": {
							"dim": [{
								"size": "3"
							}, {
								"size": "3"
							}, {
								"size": "1"
							}, {
								"size": "1"
							}]
						}
					}
				},
				"dtype": {
					"type": "DT_FLOAT"
				}
			}
		}, {
			"name": "ConstantFolding/PartitionedCall/split_87-folded-29",
			"op": "Const",
			"attr": {
				"dtype": {
					"type": "DT_FLOAT"
				},
				"value": {
					"tensor": {
						"dtype": "DT_FLOAT",
						"tensorShape": {
							"dim": [{
								"size": "3"
							}, {
								"size": "3"
							}, {
								"size": "1"
							}, {
								"size": "1"
							}]
						}
					}
				}
			}
		}, {
			"name": "ConstantFolding/PartitionedCall/split_87-folded-30",
			"op": "Const",
			"attr": {
				"dtype": {
					"type": "DT_FLOAT"
				},
				"value": {
					"tensor": {
						"dtype": "DT_FLOAT",
						"tensorShape": {
							"dim": [{
								"size": "3"
							}, {
								"size": "3"
							}, {
								"size": "1"
							}, {
								"size": "1"
							}]
						}
					}
				}
			}
		}, {
			"name": "ConstantFolding/PartitionedCall/split_87-folded-31",
			"op": "Const",
			"attr": {
				"value": {
					"tensor": {
						"dtype": "DT_FLOAT",
						"tensorShape": {
							"dim": [{
								"size": "3"
							}, {
								"size": "3"
							}, {
								"size": "1"
							}, {
								"size": "1"
							}]
						}
					}
				},
				"dtype": {
					"type": "DT_FLOAT"
				}
			}
		}, {
			"name": "ConstantFolding/PartitionedCall/split_87-folded-32",
			"op": "Const",
			"attr": {
				"dtype": {
					"type": "DT_FLOAT"
				},
				"value": {
					"tensor": {
						"dtype": "DT_FLOAT",
						"tensorShape": {
							"dim": [{
								"size": "3"
							}, {
								"size": "3"
							}, {
								"size": "1"
							}, {
								"size": "1"
							}]
						}
					}
				}
			}
		}, {
			"name": "ConstantFolding/PartitionedCall/split_87-folded-33",
			"op": "Const",
			"attr": {
				"dtype": {
					"type": "DT_FLOAT"
				},
				"value": {
					"tensor": {
						"dtype": "DT_FLOAT",
						"tensorShape": {
							"dim": [{
								"size": "3"
							}, {
								"size": "3"
							}, {
								"size": "1"
							}, {
								"size": "1"
							}]
						}
					}
				}
			}
		}, {
			"name": "ConstantFolding/PartitionedCall/split_87-folded-34",
			"op": "Const",
			"attr": {
				"dtype": {
					"type": "DT_FLOAT"
				},
				"value": {
					"tensor": {
						"dtype": "DT_FLOAT",
						"tensorShape": {
							"dim": [{
								"size": "3"
							}, {
								"size": "3"
							}, {
								"size": "1"
							}, {
								"size": "1"
							}]
						}
					}
				}
			}
		}, {
			"name": "ConstantFolding/PartitionedCall/split_87-folded-35",
			"op": "Const",
			"attr": {
				"dtype": {
					"type": "DT_FLOAT"
				},
				"value": {
					"tensor": {
						"dtype": "DT_FLOAT",
						"tensorShape": {
							"dim": [{
								"size": "3"
							}, {
								"size": "3"
							}, {
								"size": "1"
							}, {
								"size": "1"
							}]
						}
					}
				}
			}
		}, {
			"name": "ConstantFolding/PartitionedCall/split_87-folded-36",
			"op": "Const",
			"attr": {
				"dtype": {
					"type": "DT_FLOAT"
				},
				"value": {
					"tensor": {
						"dtype": "DT_FLOAT",
						"tensorShape": {
							"dim": [{
								"size": "3"
							}, {
								"size": "3"
							}, {
								"size": "1"
							}, {
								"size": "1"
							}]
						}
					}
				}
			}
		}, {
			"name": "ConstantFolding/PartitionedCall/split_87-folded-37",
			"op": "Const",
			"attr": {
				"value": {
					"tensor": {
						"dtype": "DT_FLOAT",
						"tensorShape": {
							"dim": [{
								"size": "3"
							}, {
								"size": "3"
							}, {
								"size": "1"
							}, {
								"size": "1"
							}]
						}
					}
				},
				"dtype": {
					"type": "DT_FLOAT"
				}
			}
		}, {
			"name": "ConstantFolding/PartitionedCall/split_87-folded-38",
			"op": "Const",
			"attr": {
				"dtype": {
					"type": "DT_FLOAT"
				},
				"value": {
					"tensor": {
						"dtype": "DT_FLOAT",
						"tensorShape": {
							"dim": [{
								"size": "3"
							}, {
								"size": "3"
							}, {
								"size": "1"
							}, {
								"size": "1"
							}]
						}
					}
				}
			}
		}, {
			"name": "ConstantFolding/PartitionedCall/split_87-folded-39",
			"op": "Const",
			"attr": {
				"value": {
					"tensor": {
						"dtype": "DT_FLOAT",
						"tensorShape": {
							"dim": [{
								"size": "3"
							}, {
								"size": "3"
							}, {
								"size": "1"
							}, {
								"size": "1"
							}]
						}
					}
				},
				"dtype": {
					"type": "DT_FLOAT"
				}
			}
		}, {
			"name": "ConstantFolding/PartitionedCall/split_87-folded-40",
			"op": "Const",
			"attr": {
				"dtype": {
					"type": "DT_FLOAT"
				},
				"value": {
					"tensor": {
						"dtype": "DT_FLOAT",
						"tensorShape": {
							"dim": [{
								"size": "3"
							}, {
								"size": "3"
							}, {
								"size": "1"
							}, {
								"size": "1"
							}]
						}
					}
				}
			}
		}, {
			"name": "ConstantFolding/PartitionedCall/split_87-folded-41",
			"op": "Const",
			"attr": {
				"dtype": {
					"type": "DT_FLOAT"
				},
				"value": {
					"tensor": {
						"dtype": "DT_FLOAT",
						"tensorShape": {
							"dim": [{
								"size": "3"
							}, {
								"size": "3"
							}, {
								"size": "1"
							}, {
								"size": "1"
							}]
						}
					}
				}
			}
		}, {
			"name": "ConstantFolding/PartitionedCall/split_87-folded-42",
			"op": "Const",
			"attr": {
				"dtype": {
					"type": "DT_FLOAT"
				},
				"value": {
					"tensor": {
						"dtype": "DT_FLOAT",
						"tensorShape": {
							"dim": [{
								"size": "3"
							}, {
								"size": "3"
							}, {
								"size": "1"
							}, {
								"size": "1"
							}]
						}
					}
				}
			}
		}, {
			"name": "ConstantFolding/PartitionedCall/split_87-folded-43",
			"op": "Const",
			"attr": {
				"dtype": {
					"type": "DT_FLOAT"
				},
				"value": {
					"tensor": {
						"dtype": "DT_FLOAT",
						"tensorShape": {
							"dim": [{
								"size": "3"
							}, {
								"size": "3"
							}, {
								"size": "1"
							}, {
								"size": "1"
							}]
						}
					}
				}
			}
		}, {
			"name": "ConstantFolding/PartitionedCall/split_87-folded-44",
			"op": "Const",
			"attr": {
				"value": {
					"tensor": {
						"dtype": "DT_FLOAT",
						"tensorShape": {
							"dim": [{
								"size": "3"
							}, {
								"size": "3"
							}, {
								"size": "1"
							}, {
								"size": "1"
							}]
						}
					}
				},
				"dtype": {
					"type": "DT_FLOAT"
				}
			}
		}, {
			"name": "ConstantFolding/PartitionedCall/split_87-folded-45",
			"op": "Const",
			"attr": {
				"value": {
					"tensor": {
						"dtype": "DT_FLOAT",
						"tensorShape": {
							"dim": [{
								"size": "3"
							}, {
								"size": "3"
							}, {
								"size": "1"
							}, {
								"size": "1"
							}]
						}
					}
				},
				"dtype": {
					"type": "DT_FLOAT"
				}
			}
		}, {
			"name": "ConstantFolding/PartitionedCall/split_87-folded-46",
			"op": "Const",
			"attr": {
				"dtype": {
					"type": "DT_FLOAT"
				},
				"value": {
					"tensor": {
						"dtype": "DT_FLOAT",
						"tensorShape": {
							"dim": [{
								"size": "3"
							}, {
								"size": "3"
							}, {
								"size": "1"
							}, {
								"size": "1"
							}]
						}
					}
				}
			}
		}, {
			"name": "ConstantFolding/PartitionedCall/split_87-folded-47",
			"op": "Const",
			"attr": {
				"value": {
					"tensor": {
						"dtype": "DT_FLOAT",
						"tensorShape": {
							"dim": [{
								"size": "3"
							}, {
								"size": "3"
							}, {
								"size": "1"
							}, {
								"size": "1"
							}]
						}
					}
				},
				"dtype": {
					"type": "DT_FLOAT"
				}
			}
		}, {
			"name": "ConstantFolding/PartitionedCall/split_87-folded-48",
			"op": "Const",
			"attr": {
				"value": {
					"tensor": {
						"dtype": "DT_FLOAT",
						"tensorShape": {
							"dim": [{
								"size": "3"
							}, {
								"size": "3"
							}, {
								"size": "1"
							}, {
								"size": "1"
							}]
						}
					}
				},
				"dtype": {
					"type": "DT_FLOAT"
				}
			}
		}, {
			"name": "ConstantFolding/PartitionedCall/split_87-folded-49",
			"op": "Const",
			"attr": {
				"dtype": {
					"type": "DT_FLOAT"
				},
				"value": {
					"tensor": {
						"dtype": "DT_FLOAT",
						"tensorShape": {
							"dim": [{
								"size": "3"
							}, {
								"size": "3"
							}, {
								"size": "1"
							}, {
								"size": "1"
							}]
						}
					}
				}
			}
		}, {
			"name": "ConstantFolding/PartitionedCall/split_87-folded-50",
			"op": "Const",
			"attr": {
				"value": {
					"tensor": {
						"dtype": "DT_FLOAT",
						"tensorShape": {
							"dim": [{
								"size": "3"
							}, {
								"size": "3"
							}, {
								"size": "1"
							}, {
								"size": "1"
							}]
						}
					}
				},
				"dtype": {
					"type": "DT_FLOAT"
				}
			}
		}, {
			"name": "ConstantFolding/PartitionedCall/split_87-folded-51",
			"op": "Const",
			"attr": {
				"dtype": {
					"type": "DT_FLOAT"
				},
				"value": {
					"tensor": {
						"dtype": "DT_FLOAT",
						"tensorShape": {
							"dim": [{
								"size": "3"
							}, {
								"size": "3"
							}, {
								"size": "1"
							}, {
								"size": "1"
							}]
						}
					}
				}
			}
		}, {
			"name": "ConstantFolding/PartitionedCall/split_87-folded-52",
			"op": "Const",
			"attr": {
				"dtype": {
					"type": "DT_FLOAT"
				},
				"value": {
					"tensor": {
						"dtype": "DT_FLOAT",
						"tensorShape": {
							"dim": [{
								"size": "3"
							}, {
								"size": "3"
							}, {
								"size": "1"
							}, {
								"size": "1"
							}]
						}
					}
				}
			}
		}, {
			"name": "ConstantFolding/PartitionedCall/split_87-folded-53",
			"op": "Const",
			"attr": {
				"dtype": {
					"type": "DT_FLOAT"
				},
				"value": {
					"tensor": {
						"dtype": "DT_FLOAT",
						"tensorShape": {
							"dim": [{
								"size": "3"
							}, {
								"size": "3"
							}, {
								"size": "1"
							}, {
								"size": "1"
							}]
						}
					}
				}
			}
		}, {
			"name": "ConstantFolding/PartitionedCall/split_87-folded-54",
			"op": "Const",
			"attr": {
				"value": {
					"tensor": {
						"dtype": "DT_FLOAT",
						"tensorShape": {
							"dim": [{
								"size": "3"
							}, {
								"size": "3"
							}, {
								"size": "1"
							}, {
								"size": "1"
							}]
						}
					}
				},
				"dtype": {
					"type": "DT_FLOAT"
				}
			}
		}, {
			"name": "ConstantFolding/PartitionedCall/split_87-folded-55",
			"op": "Const",
			"attr": {
				"value": {
					"tensor": {
						"dtype": "DT_FLOAT",
						"tensorShape": {
							"dim": [{
								"size": "3"
							}, {
								"size": "3"
							}, {
								"size": "1"
							}, {
								"size": "1"
							}]
						}
					}
				},
				"dtype": {
					"type": "DT_FLOAT"
				}
			}
		}, {
			"name": "ConstantFolding/PartitionedCall/split_87-folded-56",
			"op": "Const",
			"attr": {
				"value": {
					"tensor": {
						"dtype": "DT_FLOAT",
						"tensorShape": {
							"dim": [{
								"size": "3"
							}, {
								"size": "3"
							}, {
								"size": "1"
							}, {
								"size": "1"
							}]
						}
					}
				},
				"dtype": {
					"type": "DT_FLOAT"
				}
			}
		}, {
			"name": "ConstantFolding/PartitionedCall/split_87-folded-57",
			"op": "Const",
			"attr": {
				"value": {
					"tensor": {
						"dtype": "DT_FLOAT",
						"tensorShape": {
							"dim": [{
								"size": "3"
							}, {
								"size": "3"
							}, {
								"size": "1"
							}, {
								"size": "1"
							}]
						}
					}
				},
				"dtype": {
					"type": "DT_FLOAT"
				}
			}
		}, {
			"name": "ConstantFolding/PartitionedCall/split_87-folded-58",
			"op": "Const",
			"attr": {
				"dtype": {
					"type": "DT_FLOAT"
				},
				"value": {
					"tensor": {
						"dtype": "DT_FLOAT",
						"tensorShape": {
							"dim": [{
								"size": "3"
							}, {
								"size": "3"
							}, {
								"size": "1"
							}, {
								"size": "1"
							}]
						}
					}
				}
			}
		}, {
			"name": "ConstantFolding/PartitionedCall/split_87-folded-59",
			"op": "Const",
			"attr": {
				"value": {
					"tensor": {
						"dtype": "DT_FLOAT",
						"tensorShape": {
							"dim": [{
								"size": "3"
							}, {
								"size": "3"
							}, {
								"size": "1"
							}, {
								"size": "1"
							}]
						}
					}
				},
				"dtype": {
					"type": "DT_FLOAT"
				}
			}
		}, {
			"name": "ConstantFolding/PartitionedCall/split_87-folded-60",
			"op": "Const",
			"attr": {
				"value": {
					"tensor": {
						"dtype": "DT_FLOAT",
						"tensorShape": {
							"dim": [{
								"size": "3"
							}, {
								"size": "3"
							}, {
								"size": "1"
							}, {
								"size": "1"
							}]
						}
					}
				},
				"dtype": {
					"type": "DT_FLOAT"
				}
			}
		}, {
			"name": "ConstantFolding/PartitionedCall/split_87-folded-61",
			"op": "Const",
			"attr": {
				"value": {
					"tensor": {
						"dtype": "DT_FLOAT",
						"tensorShape": {
							"dim": [{
								"size": "3"
							}, {
								"size": "3"
							}, {
								"size": "1"
							}, {
								"size": "1"
							}]
						}
					}
				},
				"dtype": {
					"type": "DT_FLOAT"
				}
			}
		}, {
			"name": "ConstantFolding/PartitionedCall/split_87-folded-62",
			"op": "Const",
			"attr": {
				"value": {
					"tensor": {
						"dtype": "DT_FLOAT",
						"tensorShape": {
							"dim": [{
								"size": "3"
							}, {
								"size": "3"
							}, {
								"size": "1"
							}, {
								"size": "1"
							}]
						}
					}
				},
				"dtype": {
					"type": "DT_FLOAT"
				}
			}
		}, {
			"name": "ConstantFolding/PartitionedCall/split_87-folded-63",
			"op": "Const",
			"attr": {
				"value": {
					"tensor": {
						"dtype": "DT_FLOAT",
						"tensorShape": {
							"dim": [{
								"size": "3"
							}, {
								"size": "3"
							}, {
								"size": "1"
							}, {
								"size": "1"
							}]
						}
					}
				},
				"dtype": {
					"type": "DT_FLOAT"
				}
			}
		}, {
			"name": "ConstantFolding/PartitionedCall/split_87-folded-64",
			"op": "Const",
			"attr": {
				"dtype": {
					"type": "DT_FLOAT"
				},
				"value": {
					"tensor": {
						"dtype": "DT_FLOAT",
						"tensorShape": {
							"dim": [{
								"size": "3"
							}, {
								"size": "3"
							}, {
								"size": "1"
							}, {
								"size": "1"
							}]
						}
					}
				}
			}
		}, {
			"name": "ConstantFolding/PartitionedCall/split_87-folded-65",
			"op": "Const",
			"attr": {
				"dtype": {
					"type": "DT_FLOAT"
				},
				"value": {
					"tensor": {
						"dtype": "DT_FLOAT",
						"tensorShape": {
							"dim": [{
								"size": "3"
							}, {
								"size": "3"
							}, {
								"size": "1"
							}, {
								"size": "1"
							}]
						}
					}
				}
			}
		}, {
			"name": "ConstantFolding/PartitionedCall/split_87-folded-66",
			"op": "Const",
			"attr": {
				"value": {
					"tensor": {
						"dtype": "DT_FLOAT",
						"tensorShape": {
							"dim": [{
								"size": "3"
							}, {
								"size": "3"
							}, {
								"size": "1"
							}, {
								"size": "1"
							}]
						}
					}
				},
				"dtype": {
					"type": "DT_FLOAT"
				}
			}
		}, {
			"name": "ConstantFolding/PartitionedCall/split_87-folded-67",
			"op": "Const",
			"attr": {
				"dtype": {
					"type": "DT_FLOAT"
				},
				"value": {
					"tensor": {
						"dtype": "DT_FLOAT",
						"tensorShape": {
							"dim": [{
								"size": "3"
							}, {
								"size": "3"
							}, {
								"size": "1"
							}, {
								"size": "1"
							}]
						}
					}
				}
			}
		}, {
			"name": "ConstantFolding/PartitionedCall/split_87-folded-68",
			"op": "Const",
			"attr": {
				"dtype": {
					"type": "DT_FLOAT"
				},
				"value": {
					"tensor": {
						"dtype": "DT_FLOAT",
						"tensorShape": {
							"dim": [{
								"size": "3"
							}, {
								"size": "3"
							}, {
								"size": "1"
							}, {
								"size": "1"
							}]
						}
					}
				}
			}
		}, {
			"name": "ConstantFolding/PartitionedCall/split_87-folded-69",
			"op": "Const",
			"attr": {
				"dtype": {
					"type": "DT_FLOAT"
				},
				"value": {
					"tensor": {
						"dtype": "DT_FLOAT",
						"tensorShape": {
							"dim": [{
								"size": "3"
							}, {
								"size": "3"
							}, {
								"size": "1"
							}, {
								"size": "1"
							}]
						}
					}
				}
			}
		}, {
			"name": "ConstantFolding/PartitionedCall/split_87-folded-70",
			"op": "Const",
			"attr": {
				"dtype": {
					"type": "DT_FLOAT"
				},
				"value": {
					"tensor": {
						"dtype": "DT_FLOAT",
						"tensorShape": {
							"dim": [{
								"size": "3"
							}, {
								"size": "3"
							}, {
								"size": "1"
							}, {
								"size": "1"
							}]
						}
					}
				}
			}
		}, {
			"name": "ConstantFolding/PartitionedCall/split_87-folded-71",
			"op": "Const",
			"attr": {
				"value": {
					"tensor": {
						"dtype": "DT_FLOAT",
						"tensorShape": {
							"dim": [{
								"size": "3"
							}, {
								"size": "3"
							}, {
								"size": "1"
							}, {
								"size": "1"
							}]
						}
					}
				},
				"dtype": {
					"type": "DT_FLOAT"
				}
			}
		}, {
			"name": "ConstantFolding/PartitionedCall/split_87-folded-72",
			"op": "Const",
			"attr": {
				"value": {
					"tensor": {
						"dtype": "DT_FLOAT",
						"tensorShape": {
							"dim": [{
								"size": "3"
							}, {
								"size": "3"
							}, {
								"size": "1"
							}, {
								"size": "1"
							}]
						}
					}
				},
				"dtype": {
					"type": "DT_FLOAT"
				}
			}
		}, {
			"name": "ConstantFolding/PartitionedCall/split_87-folded-73",
			"op": "Const",
			"attr": {
				"value": {
					"tensor": {
						"dtype": "DT_FLOAT",
						"tensorShape": {
							"dim": [{
								"size": "3"
							}, {
								"size": "3"
							}, {
								"size": "1"
							}, {
								"size": "1"
							}]
						}
					}
				},
				"dtype": {
					"type": "DT_FLOAT"
				}
			}
		}, {
			"name": "ConstantFolding/PartitionedCall/split_87-folded-74",
			"op": "Const",
			"attr": {
				"dtype": {
					"type": "DT_FLOAT"
				},
				"value": {
					"tensor": {
						"dtype": "DT_FLOAT",
						"tensorShape": {
							"dim": [{
								"size": "3"
							}, {
								"size": "3"
							}, {
								"size": "1"
							}, {
								"size": "1"
							}]
						}
					}
				}
			}
		}, {
			"name": "ConstantFolding/PartitionedCall/split_87-folded-75",
			"op": "Const",
			"attr": {
				"value": {
					"tensor": {
						"dtype": "DT_FLOAT",
						"tensorShape": {
							"dim": [{
								"size": "3"
							}, {
								"size": "3"
							}, {
								"size": "1"
							}, {
								"size": "1"
							}]
						}
					}
				},
				"dtype": {
					"type": "DT_FLOAT"
				}
			}
		}, {
			"name": "ConstantFolding/PartitionedCall/split_87-folded-76",
			"op": "Const",
			"attr": {
				"value": {
					"tensor": {
						"dtype": "DT_FLOAT",
						"tensorShape": {
							"dim": [{
								"size": "3"
							}, {
								"size": "3"
							}, {
								"size": "1"
							}, {
								"size": "1"
							}]
						}
					}
				},
				"dtype": {
					"type": "DT_FLOAT"
				}
			}
		}, {
			"name": "ConstantFolding/PartitionedCall/split_87-folded-77",
			"op": "Const",
			"attr": {
				"value": {
					"tensor": {
						"dtype": "DT_FLOAT",
						"tensorShape": {
							"dim": [{
								"size": "3"
							}, {
								"size": "3"
							}, {
								"size": "1"
							}, {
								"size": "1"
							}]
						}
					}
				},
				"dtype": {
					"type": "DT_FLOAT"
				}
			}
		}, {
			"name": "ConstantFolding/PartitionedCall/split_87-folded-78",
			"op": "Const",
			"attr": {
				"dtype": {
					"type": "DT_FLOAT"
				},
				"value": {
					"tensor": {
						"dtype": "DT_FLOAT",
						"tensorShape": {
							"dim": [{
								"size": "3"
							}, {
								"size": "3"
							}, {
								"size": "1"
							}, {
								"size": "1"
							}]
						}
					}
				}
			}
		}, {
			"name": "ConstantFolding/PartitionedCall/split_87-folded-79",
			"op": "Const",
			"attr": {
				"dtype": {
					"type": "DT_FLOAT"
				},
				"value": {
					"tensor": {
						"dtype": "DT_FLOAT",
						"tensorShape": {
							"dim": [{
								"size": "3"
							}, {
								"size": "3"
							}, {
								"size": "1"
							}, {
								"size": "1"
							}]
						}
					}
				}
			}
		}, {
			"name": "ConstantFolding/PartitionedCall/split_87-folded-80",
			"op": "Const",
			"attr": {
				"value": {
					"tensor": {
						"dtype": "DT_FLOAT",
						"tensorShape": {
							"dim": [{
								"size": "3"
							}, {
								"size": "3"
							}, {
								"size": "1"
							}, {
								"size": "1"
							}]
						}
					}
				},
				"dtype": {
					"type": "DT_FLOAT"
				}
			}
		}, {
			"name": "ConstantFolding/PartitionedCall/split_87-folded-81",
			"op": "Const",
			"attr": {
				"dtype": {
					"type": "DT_FLOAT"
				},
				"value": {
					"tensor": {
						"dtype": "DT_FLOAT",
						"tensorShape": {
							"dim": [{
								"size": "3"
							}, {
								"size": "3"
							}, {
								"size": "1"
							}, {
								"size": "1"
							}]
						}
					}
				}
			}
		}, {
			"name": "ConstantFolding/PartitionedCall/split_87-folded-82",
			"op": "Const",
			"attr": {
				"dtype": {
					"type": "DT_FLOAT"
				},
				"value": {
					"tensor": {
						"dtype": "DT_FLOAT",
						"tensorShape": {
							"dim": [{
								"size": "3"
							}, {
								"size": "3"
							}, {
								"size": "1"
							}, {
								"size": "1"
							}]
						}
					}
				}
			}
		}, {
			"name": "ConstantFolding/PartitionedCall/split_87-folded-83",
			"op": "Const",
			"attr": {
				"dtype": {
					"type": "DT_FLOAT"
				},
				"value": {
					"tensor": {
						"dtype": "DT_FLOAT",
						"tensorShape": {
							"dim": [{
								"size": "3"
							}, {
								"size": "3"
							}, {
								"size": "1"
							}, {
								"size": "1"
							}]
						}
					}
				}
			}
		}, {
			"name": "ConstantFolding/PartitionedCall/split_87-folded-84",
			"op": "Const",
			"attr": {
				"value": {
					"tensor": {
						"dtype": "DT_FLOAT",
						"tensorShape": {
							"dim": [{
								"size": "3"
							}, {
								"size": "3"
							}, {
								"size": "1"
							}, {
								"size": "1"
							}]
						}
					}
				},
				"dtype": {
					"type": "DT_FLOAT"
				}
			}
		}, {
			"name": "ConstantFolding/PartitionedCall/split_87-folded-85",
			"op": "Const",
			"attr": {
				"value": {
					"tensor": {
						"dtype": "DT_FLOAT",
						"tensorShape": {
							"dim": [{
								"size": "3"
							}, {
								"size": "3"
							}, {
								"size": "1"
							}, {
								"size": "1"
							}]
						}
					}
				},
				"dtype": {
					"type": "DT_FLOAT"
				}
			}
		}, {
			"name": "ConstantFolding/PartitionedCall/split_87-folded-86",
			"op": "Const",
			"attr": {
				"dtype": {
					"type": "DT_FLOAT"
				},
				"value": {
					"tensor": {
						"dtype": "DT_FLOAT",
						"tensorShape": {
							"dim": [{
								"size": "3"
							}, {
								"size": "3"
							}, {
								"size": "1"
							}, {
								"size": "1"
							}]
						}
					}
				}
			}
		}, {
			"name": "ConstantFolding/PartitionedCall/split_87-folded-87",
			"op": "Const",
			"attr": {
				"dtype": {
					"type": "DT_FLOAT"
				},
				"value": {
					"tensor": {
						"dtype": "DT_FLOAT",
						"tensorShape": {
							"dim": [{
								"size": "3"
							}, {
								"size": "3"
							}, {
								"size": "1"
							}, {
								"size": "1"
							}]
						}
					}
				}
			}
		}, {
			"name": "ConstantFolding/PartitionedCall/split_87-folded-88",
			"op": "Const",
			"attr": {
				"value": {
					"tensor": {
						"dtype": "DT_FLOAT",
						"tensorShape": {
							"dim": [{
								"size": "3"
							}, {
								"size": "3"
							}, {
								"size": "1"
							}, {
								"size": "1"
							}]
						}
					}
				},
				"dtype": {
					"type": "DT_FLOAT"
				}
			}
		}, {
			"name": "ConstantFolding/PartitionedCall/split_87-folded-89",
			"op": "Const",
			"attr": {
				"value": {
					"tensor": {
						"dtype": "DT_FLOAT",
						"tensorShape": {
							"dim": [{
								"size": "3"
							}, {
								"size": "3"
							}, {
								"size": "1"
							}, {
								"size": "1"
							}]
						}
					}
				},
				"dtype": {
					"type": "DT_FLOAT"
				}
			}
		}, {
			"name": "ConstantFolding/PartitionedCall/split_87-folded-90",
			"op": "Const",
			"attr": {
				"value": {
					"tensor": {
						"dtype": "DT_FLOAT",
						"tensorShape": {
							"dim": [{
								"size": "3"
							}, {
								"size": "3"
							}, {
								"size": "1"
							}, {
								"size": "1"
							}]
						}
					}
				},
				"dtype": {
					"type": "DT_FLOAT"
				}
			}
		}, {
			"name": "ConstantFolding/PartitionedCall/split_87-folded-91",
			"op": "Const",
			"attr": {
				"value": {
					"tensor": {
						"dtype": "DT_FLOAT",
						"tensorShape": {
							"dim": [{
								"size": "3"
							}, {
								"size": "3"
							}, {
								"size": "1"
							}, {
								"size": "1"
							}]
						}
					}
				},
				"dtype": {
					"type": "DT_FLOAT"
				}
			}
		}, {
			"name": "ConstantFolding/PartitionedCall/split_87-folded-92",
			"op": "Const",
			"attr": {
				"dtype": {
					"type": "DT_FLOAT"
				},
				"value": {
					"tensor": {
						"dtype": "DT_FLOAT",
						"tensorShape": {
							"dim": [{
								"size": "3"
							}, {
								"size": "3"
							}, {
								"size": "1"
							}, {
								"size": "1"
							}]
						}
					}
				}
			}
		}, {
			"name": "ConstantFolding/PartitionedCall/split_87-folded-93",
			"op": "Const",
			"attr": {
				"dtype": {
					"type": "DT_FLOAT"
				},
				"value": {
					"tensor": {
						"dtype": "DT_FLOAT",
						"tensorShape": {
							"dim": [{
								"size": "3"
							}, {
								"size": "3"
							}, {
								"size": "1"
							}, {
								"size": "1"
							}]
						}
					}
				}
			}
		}, {
			"name": "ConstantFolding/PartitionedCall/split_87-folded-94",
			"op": "Const",
			"attr": {
				"value": {
					"tensor": {
						"dtype": "DT_FLOAT",
						"tensorShape": {
							"dim": [{
								"size": "3"
							}, {
								"size": "3"
							}, {
								"size": "1"
							}, {
								"size": "1"
							}]
						}
					}
				},
				"dtype": {
					"type": "DT_FLOAT"
				}
			}
		}, {
			"name": "PartitionedCall/split_88/split_dim",
			"op": "Const",
			"attr": {
				"value": {
					"tensor": {
						"dtype": "DT_INT32",
						"tensorShape": {}
					}
				},
				"dtype": {
					"type": "DT_INT32"
				}
			}
		}, {
			"name": "ConstantFolding/PartitionedCall/split_84-folded-0",
			"op": "Const",
			"attr": {
				"value": {
					"tensor": {
						"dtype": "DT_FLOAT",
						"tensorShape": {
							"dim": [{
								"size": "3"
							}, {
								"size": "3"
							}, {
								"size": "1"
							}, {
								"size": "1"
							}]
						}
					}
				},
				"dtype": {
					"type": "DT_FLOAT"
				}
			}
		}, {
			"name": "ConstantFolding/PartitionedCall/split_84-folded-1",
			"op": "Const",
			"attr": {
				"dtype": {
					"type": "DT_FLOAT"
				},
				"value": {
					"tensor": {
						"dtype": "DT_FLOAT",
						"tensorShape": {
							"dim": [{
								"size": "3"
							}, {
								"size": "3"
							}, {
								"size": "1"
							}, {
								"size": "1"
							}]
						}
					}
				}
			}
		}, {
			"name": "ConstantFolding/PartitionedCall/split_84-folded-2",
			"op": "Const",
			"attr": {
				"dtype": {
					"type": "DT_FLOAT"
				},
				"value": {
					"tensor": {
						"dtype": "DT_FLOAT",
						"tensorShape": {
							"dim": [{
								"size": "3"
							}, {
								"size": "3"
							}, {
								"size": "1"
							}, {
								"size": "1"
							}]
						}
					}
				}
			}
		}, {
			"name": "ConstantFolding/PartitionedCall/split_84-folded-3",
			"op": "Const",
			"attr": {
				"dtype": {
					"type": "DT_FLOAT"
				},
				"value": {
					"tensor": {
						"dtype": "DT_FLOAT",
						"tensorShape": {
							"dim": [{
								"size": "3"
							}, {
								"size": "3"
							}, {
								"size": "1"
							}, {
								"size": "1"
							}]
						}
					}
				}
			}
		}, {
			"name": "ConstantFolding/PartitionedCall/split_84-folded-4",
			"op": "Const",
			"attr": {
				"value": {
					"tensor": {
						"dtype": "DT_FLOAT",
						"tensorShape": {
							"dim": [{
								"size": "3"
							}, {
								"size": "3"
							}, {
								"size": "1"
							}, {
								"size": "1"
							}]
						}
					}
				},
				"dtype": {
					"type": "DT_FLOAT"
				}
			}
		}, {
			"name": "ConstantFolding/PartitionedCall/split_84-folded-5",
			"op": "Const",
			"attr": {
				"dtype": {
					"type": "DT_FLOAT"
				},
				"value": {
					"tensor": {
						"dtype": "DT_FLOAT",
						"tensorShape": {
							"dim": [{
								"size": "3"
							}, {
								"size": "3"
							}, {
								"size": "1"
							}, {
								"size": "1"
							}]
						}
					}
				}
			}
		}, {
			"name": "ConstantFolding/PartitionedCall/split_84-folded-6",
			"op": "Const",
			"attr": {
				"dtype": {
					"type": "DT_FLOAT"
				},
				"value": {
					"tensor": {
						"dtype": "DT_FLOAT",
						"tensorShape": {
							"dim": [{
								"size": "3"
							}, {
								"size": "3"
							}, {
								"size": "1"
							}, {
								"size": "1"
							}]
						}
					}
				}
			}
		}, {
			"name": "ConstantFolding/PartitionedCall/split_84-folded-7",
			"op": "Const",
			"attr": {
				"value": {
					"tensor": {
						"dtype": "DT_FLOAT",
						"tensorShape": {
							"dim": [{
								"size": "3"
							}, {
								"size": "3"
							}, {
								"size": "1"
							}, {
								"size": "1"
							}]
						}
					}
				},
				"dtype": {
					"type": "DT_FLOAT"
				}
			}
		}, {
			"name": "ConstantFolding/PartitionedCall/split_84-folded-8",
			"op": "Const",
			"attr": {
				"dtype": {
					"type": "DT_FLOAT"
				},
				"value": {
					"tensor": {
						"dtype": "DT_FLOAT",
						"tensorShape": {
							"dim": [{
								"size": "3"
							}, {
								"size": "3"
							}, {
								"size": "1"
							}, {
								"size": "1"
							}]
						}
					}
				}
			}
		}, {
			"name": "ConstantFolding/PartitionedCall/split_84-folded-9",
			"op": "Const",
			"attr": {
				"dtype": {
					"type": "DT_FLOAT"
				},
				"value": {
					"tensor": {
						"dtype": "DT_FLOAT",
						"tensorShape": {
							"dim": [{
								"size": "3"
							}, {
								"size": "3"
							}, {
								"size": "1"
							}, {
								"size": "1"
							}]
						}
					}
				}
			}
		}, {
			"name": "ConstantFolding/PartitionedCall/split_84-folded-10",
			"op": "Const",
			"attr": {
				"dtype": {
					"type": "DT_FLOAT"
				},
				"value": {
					"tensor": {
						"dtype": "DT_FLOAT",
						"tensorShape": {
							"dim": [{
								"size": "3"
							}, {
								"size": "3"
							}, {
								"size": "1"
							}, {
								"size": "1"
							}]
						}
					}
				}
			}
		}, {
			"name": "ConstantFolding/PartitionedCall/split_84-folded-11",
			"op": "Const",
			"attr": {
				"value": {
					"tensor": {
						"dtype": "DT_FLOAT",
						"tensorShape": {
							"dim": [{
								"size": "3"
							}, {
								"size": "3"
							}, {
								"size": "1"
							}, {
								"size": "1"
							}]
						}
					}
				},
				"dtype": {
					"type": "DT_FLOAT"
				}
			}
		}, {
			"name": "ConstantFolding/PartitionedCall/split_84-folded-12",
			"op": "Const",
			"attr": {
				"dtype": {
					"type": "DT_FLOAT"
				},
				"value": {
					"tensor": {
						"dtype": "DT_FLOAT",
						"tensorShape": {
							"dim": [{
								"size": "3"
							}, {
								"size": "3"
							}, {
								"size": "1"
							}, {
								"size": "1"
							}]
						}
					}
				}
			}
		}, {
			"name": "ConstantFolding/PartitionedCall/split_84-folded-13",
			"op": "Const",
			"attr": {
				"value": {
					"tensor": {
						"dtype": "DT_FLOAT",
						"tensorShape": {
							"dim": [{
								"size": "3"
							}, {
								"size": "3"
							}, {
								"size": "1"
							}, {
								"size": "1"
							}]
						}
					}
				},
				"dtype": {
					"type": "DT_FLOAT"
				}
			}
		}, {
			"name": "ConstantFolding/PartitionedCall/split_84-folded-14",
			"op": "Const",
			"attr": {
				"dtype": {
					"type": "DT_FLOAT"
				},
				"value": {
					"tensor": {
						"dtype": "DT_FLOAT",
						"tensorShape": {
							"dim": [{
								"size": "3"
							}, {
								"size": "3"
							}, {
								"size": "1"
							}, {
								"size": "1"
							}]
						}
					}
				}
			}
		}, {
			"name": "ConstantFolding/PartitionedCall/split_84-folded-15",
			"op": "Const",
			"attr": {
				"value": {
					"tensor": {
						"dtype": "DT_FLOAT",
						"tensorShape": {
							"dim": [{
								"size": "3"
							}, {
								"size": "3"
							}, {
								"size": "1"
							}, {
								"size": "1"
							}]
						}
					}
				},
				"dtype": {
					"type": "DT_FLOAT"
				}
			}
		}, {
			"name": "ConstantFolding/PartitionedCall/split_84-folded-16",
			"op": "Const",
			"attr": {
				"dtype": {
					"type": "DT_FLOAT"
				},
				"value": {
					"tensor": {
						"dtype": "DT_FLOAT",
						"tensorShape": {
							"dim": [{
								"size": "3"
							}, {
								"size": "3"
							}, {
								"size": "1"
							}, {
								"size": "1"
							}]
						}
					}
				}
			}
		}, {
			"name": "ConstantFolding/PartitionedCall/split_84-folded-17",
			"op": "Const",
			"attr": {
				"dtype": {
					"type": "DT_FLOAT"
				},
				"value": {
					"tensor": {
						"dtype": "DT_FLOAT",
						"tensorShape": {
							"dim": [{
								"size": "3"
							}, {
								"size": "3"
							}, {
								"size": "1"
							}, {
								"size": "1"
							}]
						}
					}
				}
			}
		}, {
			"name": "ConstantFolding/PartitionedCall/split_84-folded-18",
			"op": "Const",
			"attr": {
				"dtype": {
					"type": "DT_FLOAT"
				},
				"value": {
					"tensor": {
						"dtype": "DT_FLOAT",
						"tensorShape": {
							"dim": [{
								"size": "3"
							}, {
								"size": "3"
							}, {
								"size": "1"
							}, {
								"size": "1"
							}]
						}
					}
				}
			}
		}, {
			"name": "ConstantFolding/PartitionedCall/split_84-folded-19",
			"op": "Const",
			"attr": {
				"dtype": {
					"type": "DT_FLOAT"
				},
				"value": {
					"tensor": {
						"dtype": "DT_FLOAT",
						"tensorShape": {
							"dim": [{
								"size": "3"
							}, {
								"size": "3"
							}, {
								"size": "1"
							}, {
								"size": "1"
							}]
						}
					}
				}
			}
		}, {
			"name": "ConstantFolding/PartitionedCall/split_84-folded-20",
			"op": "Const",
			"attr": {
				"value": {
					"tensor": {
						"dtype": "DT_FLOAT",
						"tensorShape": {
							"dim": [{
								"size": "3"
							}, {
								"size": "3"
							}, {
								"size": "1"
							}, {
								"size": "1"
							}]
						}
					}
				},
				"dtype": {
					"type": "DT_FLOAT"
				}
			}
		}, {
			"name": "ConstantFolding/PartitionedCall/split_84-folded-21",
			"op": "Const",
			"attr": {
				"value": {
					"tensor": {
						"dtype": "DT_FLOAT",
						"tensorShape": {
							"dim": [{
								"size": "3"
							}, {
								"size": "3"
							}, {
								"size": "1"
							}, {
								"size": "1"
							}]
						}
					}
				},
				"dtype": {
					"type": "DT_FLOAT"
				}
			}
		}, {
			"name": "ConstantFolding/PartitionedCall/split_84-folded-22",
			"op": "Const",
			"attr": {
				"value": {
					"tensor": {
						"dtype": "DT_FLOAT",
						"tensorShape": {
							"dim": [{
								"size": "3"
							}, {
								"size": "3"
							}, {
								"size": "1"
							}, {
								"size": "1"
							}]
						}
					}
				},
				"dtype": {
					"type": "DT_FLOAT"
				}
			}
		}, {
			"name": "ConstantFolding/PartitionedCall/split_84-folded-23",
			"op": "Const",
			"attr": {
				"dtype": {
					"type": "DT_FLOAT"
				},
				"value": {
					"tensor": {
						"dtype": "DT_FLOAT",
						"tensorShape": {
							"dim": [{
								"size": "3"
							}, {
								"size": "3"
							}, {
								"size": "1"
							}, {
								"size": "1"
							}]
						}
					}
				}
			}
		}, {
			"name": "ConstantFolding/PartitionedCall/split_84-folded-24",
			"op": "Const",
			"attr": {
				"dtype": {
					"type": "DT_FLOAT"
				},
				"value": {
					"tensor": {
						"dtype": "DT_FLOAT",
						"tensorShape": {
							"dim": [{
								"size": "3"
							}, {
								"size": "3"
							}, {
								"size": "1"
							}, {
								"size": "1"
							}]
						}
					}
				}
			}
		}, {
			"name": "ConstantFolding/PartitionedCall/split_84-folded-25",
			"op": "Const",
			"attr": {
				"value": {
					"tensor": {
						"dtype": "DT_FLOAT",
						"tensorShape": {
							"dim": [{
								"size": "3"
							}, {
								"size": "3"
							}, {
								"size": "1"
							}, {
								"size": "1"
							}]
						}
					}
				},
				"dtype": {
					"type": "DT_FLOAT"
				}
			}
		}, {
			"name": "ConstantFolding/PartitionedCall/split_84-folded-26",
			"op": "Const",
			"attr": {
				"value": {
					"tensor": {
						"dtype": "DT_FLOAT",
						"tensorShape": {
							"dim": [{
								"size": "3"
							}, {
								"size": "3"
							}, {
								"size": "1"
							}, {
								"size": "1"
							}]
						}
					}
				},
				"dtype": {
					"type": "DT_FLOAT"
				}
			}
		}, {
			"name": "ConstantFolding/PartitionedCall/split_84-folded-27",
			"op": "Const",
			"attr": {
				"value": {
					"tensor": {
						"dtype": "DT_FLOAT",
						"tensorShape": {
							"dim": [{
								"size": "3"
							}, {
								"size": "3"
							}, {
								"size": "1"
							}, {
								"size": "1"
							}]
						}
					}
				},
				"dtype": {
					"type": "DT_FLOAT"
				}
			}
		}, {
			"name": "ConstantFolding/PartitionedCall/split_84-folded-28",
			"op": "Const",
			"attr": {
				"value": {
					"tensor": {
						"dtype": "DT_FLOAT",
						"tensorShape": {
							"dim": [{
								"size": "3"
							}, {
								"size": "3"
							}, {
								"size": "1"
							}, {
								"size": "1"
							}]
						}
					}
				},
				"dtype": {
					"type": "DT_FLOAT"
				}
			}
		}, {
			"name": "ConstantFolding/PartitionedCall/split_84-folded-29",
			"op": "Const",
			"attr": {
				"value": {
					"tensor": {
						"dtype": "DT_FLOAT",
						"tensorShape": {
							"dim": [{
								"size": "3"
							}, {
								"size": "3"
							}, {
								"size": "1"
							}, {
								"size": "1"
							}]
						}
					}
				},
				"dtype": {
					"type": "DT_FLOAT"
				}
			}
		}, {
			"name": "ConstantFolding/PartitionedCall/split_84-folded-30",
			"op": "Const",
			"attr": {
				"dtype": {
					"type": "DT_FLOAT"
				},
				"value": {
					"tensor": {
						"dtype": "DT_FLOAT",
						"tensorShape": {
							"dim": [{
								"size": "3"
							}, {
								"size": "3"
							}, {
								"size": "1"
							}, {
								"size": "1"
							}]
						}
					}
				}
			}
		}, {
			"name": "ConstantFolding/PartitionedCall/split_84-folded-31",
			"op": "Const",
			"attr": {
				"dtype": {
					"type": "DT_FLOAT"
				},
				"value": {
					"tensor": {
						"dtype": "DT_FLOAT",
						"tensorShape": {
							"dim": [{
								"size": "3"
							}, {
								"size": "3"
							}, {
								"size": "1"
							}, {
								"size": "1"
							}]
						}
					}
				}
			}
		}, {
			"name": "ConstantFolding/PartitionedCall/split_84-folded-32",
			"op": "Const",
			"attr": {
				"value": {
					"tensor": {
						"dtype": "DT_FLOAT",
						"tensorShape": {
							"dim": [{
								"size": "3"
							}, {
								"size": "3"
							}, {
								"size": "1"
							}, {
								"size": "1"
							}]
						}
					}
				},
				"dtype": {
					"type": "DT_FLOAT"
				}
			}
		}, {
			"name": "ConstantFolding/PartitionedCall/split_84-folded-33",
			"op": "Const",
			"attr": {
				"value": {
					"tensor": {
						"dtype": "DT_FLOAT",
						"tensorShape": {
							"dim": [{
								"size": "3"
							}, {
								"size": "3"
							}, {
								"size": "1"
							}, {
								"size": "1"
							}]
						}
					}
				},
				"dtype": {
					"type": "DT_FLOAT"
				}
			}
		}, {
			"name": "ConstantFolding/PartitionedCall/split_84-folded-34",
			"op": "Const",
			"attr": {
				"value": {
					"tensor": {
						"dtype": "DT_FLOAT",
						"tensorShape": {
							"dim": [{
								"size": "3"
							}, {
								"size": "3"
							}, {
								"size": "1"
							}, {
								"size": "1"
							}]
						}
					}
				},
				"dtype": {
					"type": "DT_FLOAT"
				}
			}
		}, {
			"name": "ConstantFolding/PartitionedCall/split_84-folded-35",
			"op": "Const",
			"attr": {
				"value": {
					"tensor": {
						"dtype": "DT_FLOAT",
						"tensorShape": {
							"dim": [{
								"size": "3"
							}, {
								"size": "3"
							}, {
								"size": "1"
							}, {
								"size": "1"
							}]
						}
					}
				},
				"dtype": {
					"type": "DT_FLOAT"
				}
			}
		}, {
			"name": "ConstantFolding/PartitionedCall/split_84-folded-36",
			"op": "Const",
			"attr": {
				"dtype": {
					"type": "DT_FLOAT"
				},
				"value": {
					"tensor": {
						"dtype": "DT_FLOAT",
						"tensorShape": {
							"dim": [{
								"size": "3"
							}, {
								"size": "3"
							}, {
								"size": "1"
							}, {
								"size": "1"
							}]
						}
					}
				}
			}
		}, {
			"name": "ConstantFolding/PartitionedCall/split_84-folded-37",
			"op": "Const",
			"attr": {
				"value": {
					"tensor": {
						"dtype": "DT_FLOAT",
						"tensorShape": {
							"dim": [{
								"size": "3"
							}, {
								"size": "3"
							}, {
								"size": "1"
							}, {
								"size": "1"
							}]
						}
					}
				},
				"dtype": {
					"type": "DT_FLOAT"
				}
			}
		}, {
			"name": "ConstantFolding/PartitionedCall/split_84-folded-38",
			"op": "Const",
			"attr": {
				"dtype": {
					"type": "DT_FLOAT"
				},
				"value": {
					"tensor": {
						"dtype": "DT_FLOAT",
						"tensorShape": {
							"dim": [{
								"size": "3"
							}, {
								"size": "3"
							}, {
								"size": "1"
							}, {
								"size": "1"
							}]
						}
					}
				}
			}
		}, {
			"name": "ConstantFolding/PartitionedCall/split_84-folded-39",
			"op": "Const",
			"attr": {
				"dtype": {
					"type": "DT_FLOAT"
				},
				"value": {
					"tensor": {
						"dtype": "DT_FLOAT",
						"tensorShape": {
							"dim": [{
								"size": "3"
							}, {
								"size": "3"
							}, {
								"size": "1"
							}, {
								"size": "1"
							}]
						}
					}
				}
			}
		}, {
			"name": "ConstantFolding/PartitionedCall/split_84-folded-40",
			"op": "Const",
			"attr": {
				"dtype": {
					"type": "DT_FLOAT"
				},
				"value": {
					"tensor": {
						"dtype": "DT_FLOAT",
						"tensorShape": {
							"dim": [{
								"size": "3"
							}, {
								"size": "3"
							}, {
								"size": "1"
							}, {
								"size": "1"
							}]
						}
					}
				}
			}
		}, {
			"name": "ConstantFolding/PartitionedCall/split_84-folded-41",
			"op": "Const",
			"attr": {
				"dtype": {
					"type": "DT_FLOAT"
				},
				"value": {
					"tensor": {
						"dtype": "DT_FLOAT",
						"tensorShape": {
							"dim": [{
								"size": "3"
							}, {
								"size": "3"
							}, {
								"size": "1"
							}, {
								"size": "1"
							}]
						}
					}
				}
			}
		}, {
			"name": "ConstantFolding/PartitionedCall/split_84-folded-42",
			"op": "Const",
			"attr": {
				"dtype": {
					"type": "DT_FLOAT"
				},
				"value": {
					"tensor": {
						"dtype": "DT_FLOAT",
						"tensorShape": {
							"dim": [{
								"size": "3"
							}, {
								"size": "3"
							}, {
								"size": "1"
							}, {
								"size": "1"
							}]
						}
					}
				}
			}
		}, {
			"name": "ConstantFolding/PartitionedCall/split_84-folded-43",
			"op": "Const",
			"attr": {
				"dtype": {
					"type": "DT_FLOAT"
				},
				"value": {
					"tensor": {
						"dtype": "DT_FLOAT",
						"tensorShape": {
							"dim": [{
								"size": "3"
							}, {
								"size": "3"
							}, {
								"size": "1"
							}, {
								"size": "1"
							}]
						}
					}
				}
			}
		}, {
			"name": "ConstantFolding/PartitionedCall/split_84-folded-44",
			"op": "Const",
			"attr": {
				"dtype": {
					"type": "DT_FLOAT"
				},
				"value": {
					"tensor": {
						"dtype": "DT_FLOAT",
						"tensorShape": {
							"dim": [{
								"size": "3"
							}, {
								"size": "3"
							}, {
								"size": "1"
							}, {
								"size": "1"
							}]
						}
					}
				}
			}
		}, {
			"name": "ConstantFolding/PartitionedCall/split_84-folded-45",
			"op": "Const",
			"attr": {
				"dtype": {
					"type": "DT_FLOAT"
				},
				"value": {
					"tensor": {
						"dtype": "DT_FLOAT",
						"tensorShape": {
							"dim": [{
								"size": "3"
							}, {
								"size": "3"
							}, {
								"size": "1"
							}, {
								"size": "1"
							}]
						}
					}
				}
			}
		}, {
			"name": "ConstantFolding/PartitionedCall/split_84-folded-46",
			"op": "Const",
			"attr": {
				"value": {
					"tensor": {
						"dtype": "DT_FLOAT",
						"tensorShape": {
							"dim": [{
								"size": "3"
							}, {
								"size": "3"
							}, {
								"size": "1"
							}, {
								"size": "1"
							}]
						}
					}
				},
				"dtype": {
					"type": "DT_FLOAT"
				}
			}
		}, {
			"name": "ConstantFolding/PartitionedCall/split_84-folded-47",
			"op": "Const",
			"attr": {
				"value": {
					"tensor": {
						"dtype": "DT_FLOAT",
						"tensorShape": {
							"dim": [{
								"size": "3"
							}, {
								"size": "3"
							}, {
								"size": "1"
							}, {
								"size": "1"
							}]
						}
					}
				},
				"dtype": {
					"type": "DT_FLOAT"
				}
			}
		}, {
			"name": "ConstantFolding/PartitionedCall/split_84-folded-48",
			"op": "Const",
			"attr": {
				"value": {
					"tensor": {
						"dtype": "DT_FLOAT",
						"tensorShape": {
							"dim": [{
								"size": "3"
							}, {
								"size": "3"
							}, {
								"size": "1"
							}, {
								"size": "1"
							}]
						}
					}
				},
				"dtype": {
					"type": "DT_FLOAT"
				}
			}
		}, {
			"name": "ConstantFolding/PartitionedCall/split_84-folded-49",
			"op": "Const",
			"attr": {
				"value": {
					"tensor": {
						"dtype": "DT_FLOAT",
						"tensorShape": {
							"dim": [{
								"size": "3"
							}, {
								"size": "3"
							}, {
								"size": "1"
							}, {
								"size": "1"
							}]
						}
					}
				},
				"dtype": {
					"type": "DT_FLOAT"
				}
			}
		}, {
			"name": "ConstantFolding/PartitionedCall/split_84-folded-50",
			"op": "Const",
			"attr": {
				"dtype": {
					"type": "DT_FLOAT"
				},
				"value": {
					"tensor": {
						"dtype": "DT_FLOAT",
						"tensorShape": {
							"dim": [{
								"size": "3"
							}, {
								"size": "3"
							}, {
								"size": "1"
…
			"name": "ConstantFolding/PartitionedCall/split_9-folded-53",
			"shape": [3, 3, 1, 1],
			"dtype": "float32"
		}, {
			"name": "ConstantFolding/PartitionedCall/split_9-folded-54",
			"shape": [3, 3, 1, 1],
			"dtype": "float32"
		}, {
			"name": "ConstantFolding/PartitionedCall/split_9-folded-55",
			"shape": [3, 3, 1, 1],
			"dtype": "float32"
		}, {
			"name": "ConstantFolding/PartitionedCall/split_9-folded-56",
			"shape": [3, 3, 1, 1],
			"dtype": "float32"
		}, {
			"name": "PartitionedCall/split_10/split_dim",
			"shape": [],
			"dtype": "int32"
		}, {
			"name": "ConstantFolding/PartitionedCall/split_1-folded-0",
			"shape": [3, 3, 1, 1],
			"dtype": "float32"
		}, {
			"name": "ConstantFolding/PartitionedCall/split_1-folded-1",
			"shape": [3, 3, 1, 1],
			"dtype": "float32"
		}, {
			"name": "ConstantFolding/PartitionedCall/split_1-folded-2",
			"shape": [3, 3, 1, 1],
			"dtype": "float32"
		}, {
			"name": "ConstantFolding/PartitionedCall/split_1-folded-3",
			"shape": [3, 3, 1, 1],
			"dtype": "float32"
		}, {
			"name": "ConstantFolding/PartitionedCall/split_1-folded-4",
			"shape": [3, 3, 1, 1],
			"dtype": "float32"
		}, {
			"name": "ConstantFolding/PartitionedCall/split_1-folded-5",
			"shape": [3, 3, 1, 1],
			"dtype": "float32"
		}, {
			"name": "ConstantFolding/PartitionedCall/split_1-folded-6",
			"shape": [3, 3, 1, 1],
			"dtype": "float32"
		}, {
			"name": "ConstantFolding/PartitionedCall/split_1-folded-7",
			"shape": [3, 3, 1, 1],
			"dtype": "float32"
		}, {
			"name": "ConstantFolding/PartitionedCall/split_1-folded-8",
			"shape": [3, 3, 1, 1],
			"dtype": "float32"
		}, {
			"name": "ConstantFolding/PartitionedCall/split_1-folded-9",
			"shape": [3, 3, 1, 1],
			"dtype": "float32"
		}, {
			"name": "ConstantFolding/PartitionedCall/split_1-folded-10",
			"shape": [3, 3, 1, 1],
			"dtype": "float32"
		}, {
			"name": "ConstantFolding/PartitionedCall/split_1-folded-11",
			"shape": [3, 3, 1, 1],
			"dtype": "float32"
		}, {
			"name": "ConstantFolding/PartitionedCall/split_1-folded-12",
			"shape": [3, 3, 1, 1],
			"dtype": "float32"
		}, {
			"name": "ConstantFolding/PartitionedCall/split_1-folded-13",
			"shape": [3, 3, 1, 1],
			"dtype": "float32"
		}, {
			"name": "ConstantFolding/PartitionedCall/split_1-folded-14",
			"shape": [3, 3, 1, 1],
			"dtype": "float32"
		}, {
			"name": "ConstantFolding/PartitionedCall/split_1-folded-15",
			"shape": [3, 3, 1, 1],
			"dtype": "float32"
		}, {
			"name": "ConstantFolding/PartitionedCall/split_1-folded-16",
			"shape": [3, 3, 1, 1],
			"dtype": "float32"
		}, {
			"name": "ConstantFolding/PartitionedCall/split_1-folded-17",
			"shape": [3, 3, 1, 1],
			"dtype": "float32"
		}, {
			"name": "ConstantFolding/PartitionedCall/split_1-folded-18",
			"shape": [3, 3, 1, 1],
			"dtype": "float32"
		}, {
			"name": "ConstantFolding/PartitionedCall/split_1-folded-19",
			"shape": [3, 3, 1, 1],
			"dtype": "float32"
		}, {
			"name": "ConstantFolding/PartitionedCall/split_1-folded-20",
			"shape": [3, 3, 1, 1],
			"dtype": "float32"
		}, {
			"name": "ConstantFolding/PartitionedCall/split_1-folded-21",
			"shape": [3, 3, 1, 1],
			"dtype": "float32"
		}, {
			"name": "ConstantFolding/PartitionedCall/split_1-folded-22",
			"shape": [3, 3, 1, 1],
			"dtype": "float32"
		}, {
			"name": "PartitionedCall/split_2/split_dim",
			"shape": [],
			"dtype": "int32"
		}, {
			"name": "PartitionedCall/transpose_4/perm",
			"shape": [4],
			"dtype": "int32"
		}, {
			"name": "PartitionedCall/Const_2",
			"shape": [4, 2],
			"dtype": "int32"
		}, {
			"name": "PartitionedCall/transpose_6/perm",
			"shape": [4],
			"dtype": "int32"
		}, {
			"name": "ConstantFolding/PartitionedCall/split_1-folded-23",
			"shape": [3, 3, 1, 1],
			"dtype": "float32"
		}, {
			"name": "PartitionedCall/concat_1/axis",
			"shape": [],
			"dtype": "int32"
		}, {
			"name": "unknown_2",
			"shape": [24],
			"dtype": "float32"
		}, {
			"name": "PartitionedCall/split_3",
			"shape": [1, 1, 24, 58],
			"dtype": "float32"
		}, {
			"name": "unknown_4",
			"shape": [58],
			"dtype": "float32"
		}, {
			"name": "PartitionedCall/transpose_10/perm",
			"shape": [4],
			"dtype": "int32"
		}, {
			"name": "ConstantFolding/PartitionedCall/split_5-folded-0",
			"shape": [3, 3, 1, 1],
			"dtype": "float32"
		}, {
			"name": "ConstantFolding/PartitionedCall/split_5-folded-1",
			"shape": [3, 3, 1, 1],
			"dtype": "float32"
		}, {
			"name": "ConstantFolding/PartitionedCall/split_5-folded-2",
			"shape": [3, 3, 1, 1],
			"dtype": "float32"
		}, {
			"name": "ConstantFolding/PartitionedCall/split_5-folded-3",
			"shape": [3, 3, 1, 1],
			"dtype": "float32"
		}, {
			"name": "ConstantFolding/PartitionedCall/split_5-folded-4",
			"shape": [3, 3, 1, 1],
			"dtype": "float32"
		}, {
			"name": "ConstantFolding/PartitionedCall/split_5-folded-5",
			"shape": [3, 3, 1, 1],
			"dtype": "float32"
		}, {
			"name": "ConstantFolding/PartitionedCall/split_5-folded-6",
			"shape": [3, 3, 1, 1],
			"dtype": "float32"
		}, {
			"name": "ConstantFolding/PartitionedCall/split_5-folded-7",
			"shape": [3, 3, 1, 1],
			"dtype": "float32"
		}, {
			"name": "ConstantFolding/PartitionedCall/split_5-folded-8",
			"shape": [3, 3, 1, 1],
			"dtype": "float32"
		}, {
			"name": "ConstantFolding/PartitionedCall/split_5-folded-9",
			"shape": [3, 3, 1, 1],
			"dtype": "float32"
		}, {
			"name": "ConstantFolding/PartitionedCall/split_5-folded-10",
			"shape": [3, 3, 1, 1],
			"dtype": "float32"
		}, {
			"name": "ConstantFolding/PartitionedCall/split_5-folded-11",
			"shape": [3, 3, 1, 1],
			"dtype": "float32"
		}, {
			"name": "ConstantFolding/PartitionedCall/split_5-folded-12",
			"shape": [3, 3, 1, 1],
			"dtype": "float32"
		}, {
			"name": "ConstantFolding/PartitionedCall/split_5-folded-13",
			"shape": [3, 3, 1, 1],
			"dtype": "float32"
		}, {
			"name": "ConstantFolding/PartitionedCall/split_5-folded-14",
			"shape": [3, 3, 1, 1],
			"dtype": "float32"
		}, {
			"name": "ConstantFolding/PartitionedCall/split_5-folded-15",
			"shape": [3, 3, 1, 1],
			"dtype": "float32"
		}, {
			"name": "ConstantFolding/PartitionedCall/split_5-folded-16",
			"shape": [3, 3, 1, 1],
			"dtype": "float32"
		}, {
			"name": "ConstantFolding/PartitionedCall/split_5-folded-17",
			"shape": [3, 3, 1, 1],
			"dtype": "float32"
		}, {
			"name": "ConstantFolding/PartitionedCall/split_5-folded-18",
			"shape": [3, 3, 1, 1],
			"dtype": "float32"
		}, {
			"name": "ConstantFolding/PartitionedCall/split_5-folded-19",
			"shape": [3, 3, 1, 1],
			"dtype": "float32"
		}, {
			"name": "ConstantFolding/PartitionedCall/split_5-folded-20",
			"shape": [3, 3, 1, 1],
			"dtype": "float32"
		}, {
			"name": "ConstantFolding/PartitionedCall/split_5-folded-21",
			"shape": [3, 3, 1, 1],
			"dtype": "float32"
		}, {
			"name": "ConstantFolding/PartitionedCall/split_5-folded-22",
			"shape": [3, 3, 1, 1],
			"dtype": "float32"
		}, {
			"name": "ConstantFolding/PartitionedCall/split_5-folded-23",
			"shape": [3, 3, 1, 1],
			"dtype": "float32"
		}, {
			"name": "ConstantFolding/PartitionedCall/split_5-folded-24",
			"shape": [3, 3, 1, 1],
			"dtype": "float32"
		}, {
			"name": "ConstantFolding/PartitionedCall/split_5-folded-25",
			"shape": [3, 3, 1, 1],
			"dtype": "float32"
		}, {
			"name": "ConstantFolding/PartitionedCall/split_5-folded-26",
			"shape": [3, 3, 1, 1],
			"dtype": "float32"
		}, {
			"name": "ConstantFolding/PartitionedCall/split_5-folded-27",
			"shape": [3, 3, 1, 1],
			"dtype": "float32"
		}, {
			"name": "ConstantFolding/PartitionedCall/split_5-folded-28",
			"shape": [3, 3, 1, 1],
			"dtype": "float32"
		}, {
			"name": "ConstantFolding/PartitionedCall/split_5-folded-29",
			"shape": [3, 3, 1, 1],
			"dtype": "float32"
		}, {
			"name": "ConstantFolding/PartitionedCall/split_5-folded-30",
			"shape": [3, 3, 1, 1],
			"dtype": "float32"
		}, {
			"name": "ConstantFolding/PartitionedCall/split_5-folded-31",
			"shape": [3, 3, 1, 1],
			"dtype": "float32"
		}, {
			"name": "ConstantFolding/PartitionedCall/split_5-folded-32",
			"shape": [3, 3, 1, 1],
			"dtype": "float32"
		}, {
			"name": "ConstantFolding/PartitionedCall/split_5-folded-33",
			"shape": [3, 3, 1, 1],
			"dtype": "float32"
		}, {
			"name": "ConstantFolding/PartitionedCall/split_5-folded-34",
			"shape": [3, 3, 1, 1],
			"dtype": "float32"
		}, {
			"name": "ConstantFolding/PartitionedCall/split_5-folded-35",
			"shape": [3, 3, 1, 1],
			"dtype": "float32"
		}, {
			"name": "ConstantFolding/PartitionedCall/split_5-folded-36",
			"shape": [3, 3, 1, 1],
			"dtype": "float32"
		}, {
			"name": "ConstantFolding/PartitionedCall/split_5-folded-37",
			"shape": [3, 3, 1, 1],
			"dtype": "float32"
		}, {
			"name": "ConstantFolding/PartitionedCall/split_5-folded-38",
			"shape": [3, 3, 1, 1],
			"dtype": "float32"
		}, {
			"name": "ConstantFolding/PartitionedCall/split_5-folded-39",
			"shape": [3, 3, 1, 1],
			"dtype": "float32"
		}, {
			"name": "ConstantFolding/PartitionedCall/split_5-folded-40",
			"shape": [3, 3, 1, 1],
			"dtype": "float32"
		}, {
			"name": "ConstantFolding/PartitionedCall/split_5-folded-41",
			"shape": [3, 3, 1, 1],
			"dtype": "float32"
		}, {
			"name": "ConstantFolding/PartitionedCall/split_5-folded-42",
			"shape": [3, 3, 1, 1],
			"dtype": "float32"
		}, {
			"name": "ConstantFolding/PartitionedCall/split_5-folded-43",
			"shape": [3, 3, 1, 1],
			"dtype": "float32"
		}, {
			"name": "ConstantFolding/PartitionedCall/split_5-folded-44",
			"shape": [3, 3, 1, 1],
			"dtype": "float32"
		}, {
			"name": "ConstantFolding/PartitionedCall/split_5-folded-45",
			"shape": [3, 3, 1, 1],
			"dtype": "float32"
		}, {
			"name": "ConstantFolding/PartitionedCall/split_5-folded-46",
			"shape": [3, 3, 1, 1],
			"dtype": "float32"
		}, {
			"name": "ConstantFolding/PartitionedCall/split_5-folded-47",
			"shape": [3, 3, 1, 1],
			"dtype": "float32"
		}, {
			"name": "ConstantFolding/PartitionedCall/split_5-folded-48",
			"shape": [3, 3, 1, 1],
			"dtype": "float32"
		}, {
			"name": "ConstantFolding/PartitionedCall/split_5-folded-49",
			"shape": [3, 3, 1, 1],
			"dtype": "float32"
		}, {
			"name": "ConstantFolding/PartitionedCall/split_5-folded-50",
			"shape": [3, 3, 1, 1],
			"dtype": "float32"
		}, {
			"name": "ConstantFolding/PartitionedCall/split_5-folded-51",
			"shape": [3, 3, 1, 1],
			"dtype": "float32"
		}, {
			"name": "ConstantFolding/PartitionedCall/split_5-folded-52",
			"shape": [3, 3, 1, 1],
			"dtype": "float32"
		}, {
			"name": "ConstantFolding/PartitionedCall/split_5-folded-53",
			"shape": [3, 3, 1, 1],
			"dtype": "float32"
		}, {
			"name": "ConstantFolding/PartitionedCall/split_5-folded-54",
			"shape": [3, 3, 1, 1],
			"dtype": "float32"
		}, {
			"name": "ConstantFolding/PartitionedCall/split_5-folded-55",
			"shape": [3, 3, 1, 1],
			"dtype": "float32"
		}, {
			"name": "ConstantFolding/PartitionedCall/split_5-folded-56",
			"shape": [3, 3, 1, 1],
			"dtype": "float32"
		}, {
			"name": "PartitionedCall/split_6/split_dim",
			"shape": [],
			"dtype": "int32"
		}, {
			"name": "PartitionedCall/Const",
			"shape": [4, 2],
			"dtype": "int32"
		}, {
			"name": "PartitionedCall/transpose_1/perm",
			"shape": [4],
			"dtype": "int32"
		}, {
			"name": "PartitionedCall/split",
			"shape": [3, 3, 3, 24],
			"dtype": "float32"
		}, {
			"name": "unknown_0",
			"shape": [24],
			"dtype": "float32"
		}, {
			"name": "PartitionedCall/transpose_2/perm",
			"shape": [4],
			"dtype": "int32"
		}, {
			"name": "PartitionedCall/PadV2/paddings",
			"shape": [4, 2],
			"dtype": "int32"
		}, {
			"name": "PartitionedCall/PadV2/constant_values",
			"shape": [],
			"dtype": "float32"
		}, {
			"name": "PartitionedCall/transpose_3/perm",
			"shape": [4],
			"dtype": "int32"
		}, {
			"name": "PartitionedCall/split_4",
			"shape": [1, 1, 24, 58],
			"dtype": "float32"
		}, {
			"name": "unknown_6",
			"shape": [58],
			"dtype": "float32"
		}, {
			"name": "PartitionedCall/transpose_13/perm",
			"shape": [4],
			"dtype": "int32"
		}, {
			"name": "PartitionedCall/Const_7",
			"shape": [4, 2],
			"dtype": "int32"
		}, {
			"name": "PartitionedCall/transpose_15/perm",
			"shape": [4],
			"dtype": "int32"
		}, {
			"name": "ConstantFolding/PartitionedCall/split_5-folded-57",
			"shape": [3, 3, 1, 1],
			"dtype": "float32"
		}, {
			"name": "PartitionedCall/concat_4/axis",
			"shape": [],
			"dtype": "int32"
		}, {
			"name": "unknown_8",
			"shape": [58],
			"dtype": "float32"
		}, {
			"name": "PartitionedCall/split_7",
			"shape": [1, 1, 58, 58],
			"dtype": "float32"
		}, {
			"name": "unknown_10",
			"shape": [58],
			"dtype": "float32"
		}, {
			"name": "PartitionedCall/transpose_19/perm",
			"shape": [4],
			"dtype": "int32"
		}, {
			"name": "PartitionedCall/onnx_tf_prefix_Concat_11/axis",
			"shape": [],
			"dtype": "int32"
		}, {
			"name": "PartitionedCall/Where",
			"shape": [0, 1],
			"dtype": "int32"
		}, {
			"name": "PartitionedCall/Cast",
			"shape": [1],
			"dtype": "int32"
		}, {
			"name": "PartitionedCall/GatherV2",
			"shape": [0],
			"dtype": "int32"
		}, {
			"name": "PartitionedCall/zeros",
			"shape": [],
			"dtype": "int32"
		}, {
			"name": "PartitionedCall/onnx_tf_prefix_Transpose_14/perm",
			"shape": [5],
			"dtype": "int32"
		}, {
			"name": "PartitionedCall/Where_1",
			"shape": [0, 1],
			"dtype": "int32"
		}, {
			"name": "PartitionedCall/Cast_1",
			"shape": [1],
			"dtype": "int32"
		}, {
			"name": "PartitionedCall/GatherV2_1",
			"shape": [0],
			"dtype": "int32"
		}, {
			"name": "PartitionedCall/zeros_1",
			"shape": [],
			"dtype": "int32"
		}, {
			"name": "PartitionedCall/Const_13",
			"shape": [2],
			"dtype": "int32"
		}, {
			"name": "PartitionedCall/onnx_tf_prefix_Split_17/split_dim",
			"shape": [],
			"dtype": "int32"
		}, {
			"name": "PartitionedCall/transpose_21/perm",
			"shape": [4],
			"dtype": "int32"
		}, {
			"name": "PartitionedCall/split_8",
			"shape": [1, 1, 58, 58],
			"dtype": "float32"
		}, {
			"name": "unknown_14",
			"shape": [58],
			"dtype": "float32"
		}, {
			"name": "PartitionedCall/transpose_22/perm",
			"shape": [4],
			"dtype": "int32"
		}, {
			"name": "PartitionedCall/Const_15",
			"shape": [4, 2],
			"dtype": "int32"
		}, {
			"name": "PartitionedCall/transpose_24/perm",
			"shape": [4],
			"dtype": "int32"
		}, {
			"name": "ConstantFolding/PartitionedCall/split_9-folded-57",
			"shape": [3, 3, 1, 1],
			"dtype": "float32"
		}, {
			"name": "PartitionedCall/concat_7/axis",
			"shape": [],
			"dtype": "int32"
		}, {
			"name": "unknown_16",
			"shape": [58],
			"dtype": "float32"
		}, {
			"name": "PartitionedCall/split_11",
			"shape": [1, 1, 58, 58],
			"dtype": "float32"
		}, {
			"name": "unknown_18",
			"shape": [58],
			"dtype": "float32"
		}, {
			"name": "PartitionedCall/transpose_28/perm",
			"shape": [4],
			"dtype": "int32"
		}, {
			"name": "PartitionedCall/onnx_tf_prefix_Concat_23/axis",
			"shape": [],
			"dtype": "int32"
		}, {
			"name": "PartitionedCall/Where_2",
			"shape": [0, 1],
			"dtype": "int32"
		}, {
			"name": "PartitionedCall/Cast_2",
			"shape": [1],
			"dtype": "int32"
		}, {
			"name": "PartitionedCall/GatherV2_2",
			"shape": [0],
			"dtype": "int32"
		}, {
			"name": "PartitionedCall/zeros_2",
			"shape": [],
			"dtype": "int32"
		}, {
			"name": "PartitionedCall/onnx_tf_prefix_Transpose_26/perm",
			"shape": [5],
			"dtype": "int32"
		}, {
			"name": "PartitionedCall/Where_3",
			"shape": [0, 1],
			"dtype": "int32"
		}, {
			"name": "PartitionedCall/Cast_3",
			"shape": [1],
			"dtype": "int32"
		}, {
			"name": "PartitionedCall/GatherV2_3",
			"shape": [0],
			"dtype": "int32"
		}, {
			"name": "PartitionedCall/zeros_3",
			"shape": [],
			"dtype": "int32"
		}, {
			"name": "PartitionedCall/Const_21",
			"shape": [2],
			"dtype": "int32"
		}, {
			"name": "PartitionedCall/onnx_tf_prefix_Split_29/split_dim",
			"shape": [],
			"dtype": "int32"
		}, {
			"name": "PartitionedCall/transpose_30/perm",
			"shape": [4],
			"dtype": "int32"
		}, {
			"name": "PartitionedCall/split_12",
			"shape": [1, 1, 58, 58],
			"dtype": "float32"
		}, {
			"name": "unknown_20",
			"shape": [58],
			"dtype": "float32"
		}, {
			"name": "PartitionedCall/transpose_31/perm",
			"shape": [4],
			"dtype": "int32"
		}, {
			"name": "PartitionedCall/Const_23",
			"shape": [4, 2],
			"dtype": "int32"
		}, {
			"name": "PartitionedCall/transpose_33/perm",
			"shape": [4],
			"dtype": "int32"
		}, {
			"name": "ConstantFolding/PartitionedCall/split_13-folded-57",
			"shape": [3, 3, 1, 1],
			"dtype": "float32"
		}, {
			"name": "PartitionedCall/concat_10/axis",
			"shape": [],
			"dtype": "int32"
		}, {
			"name": "unknown_22",
			"shape": [58],
			"dtype": "float32"
		}, {
			"name": "PartitionedCall/split_15",
			"shape": [1, 1, 58, 58],
			"dtype": "float32"
		}, {
			"name": "unknown_24",
			"shape": [58],
			"dtype": "float32"
		}, {
			"name": "PartitionedCall/transpose_37/perm",
			"shape": [4],
			"dtype": "int32"
		}, {
			"name": "PartitionedCall/onnx_tf_prefix_Concat_35/axis",
			"shape": [],
			"dtype": "int32"
		}, {
			"name": "PartitionedCall/Where_4",
			"shape": [0, 1],
			"dtype": "int32"
		}, {
			"name": "PartitionedCall/Cast_4",
			"shape": [1],
			"dtype": "int32"
		}, {
			"name": "PartitionedCall/GatherV2_4",
			"shape": [0],
			"dtype": "int32"
		}, {
			"name": "PartitionedCall/zeros_4",
			"shape": [],
			"dtype": "int32"
		}, {
			"name": "PartitionedCall/onnx_tf_prefix_Transpose_38/perm",
			"shape": [5],
			"dtype": "int32"
		}, {
			"name": "PartitionedCall/Where_5",
			"shape": [0, 1],
			"dtype": "int32"
		}, {
			"name": "PartitionedCall/Cast_5",
			"shape": [1],
			"dtype": "int32"
		}, {
			"name": "PartitionedCall/GatherV2_5",
			"shape": [0],
			"dtype": "int32"
		}, {
			"name": "PartitionedCall/zeros_5",
			"shape": [],
			"dtype": "int32"
		}, {
			"name": "PartitionedCall/Const_29",
			"shape": [2],
			"dtype": "int32"
		}, {
			"name": "PartitionedCall/onnx_tf_prefix_Split_41/split_dim",
			"shape": [],
			"dtype": "int32"
		}, {
			"name": "PartitionedCall/transpose_39/perm",
			"shape": [4],
			"dtype": "int32"
		}, {
			"name": "PartitionedCall/split_16",
			"shape": [1, 1, 58, 58],
			"dtype": "float32"
		}, {
			"name": "unknown_26",
			"shape": [58],
			"dtype": "float32"
		}, {
			"name": "PartitionedCall/transpose_40/perm",
			"shape": [4],
			"dtype": "int32"
		}, {
			"name": "PartitionedCall/Const_31",
			"shape": [4, 2],
			"dtype": "int32"
		}, {
			"name": "PartitionedCall/transpose_42/perm",
			"shape": [4],
			"dtype": "int32"
		}, {
			"name": "ConstantFolding/PartitionedCall/split_17-folded-57",
			"shape": [3, 3, 1, 1],
			"dtype": "float32"
		}, {
			"name": "PartitionedCall/concat_13/axis",
			"shape": [],
			"dtype": "int32"
		}, {
			"name": "unknown_28",
			"shape": [58],
			"dtype": "float32"
		}, {
			"name": "PartitionedCall/split_19",
			"shape": [1, 1, 58, 58],
			"dtype": "float32"
		}, {
			"name": "unknown_30",
			"shape": [58],
			"dtype": "float32"
		}, {
			"name": "PartitionedCall/transpose_46/perm",
			"shape": [4],
			"dtype": "int32"
		}, {
			"name": "PartitionedCall/onnx_tf_prefix_Concat_47/axis",
			"shape": [],
			"dtype": "int32"
		}, {
			"name": "unknown_11",
			"shape": [5],
			"dtype": "int32"
		}, {
			"name": "PartitionedCall/Where_6",
			"shape": [0, 1],
			"dtype": "int32"
		}, {
			"name": "PartitionedCall/Cast_6",
			"shape": [1],
			"dtype": "int32"
		}, {
			"name": "PartitionedCall/GatherV2_6",
			"shape": [0],
			"dtype": "int32"
		}, {
			"name": "PartitionedCall/zeros_6",
			"shape": [],
			"dtype": "int32"
		}, {
			"name": "PartitionedCall/onnx_tf_prefix_Transpose_50/perm",
			"shape": [5],
			"dtype": "int32"
		}, {
			"name": "unknown_12",
			"shape": [4],
			"dtype": "int32"
		}, {
			"name": "PartitionedCall/Where_7",
			"shape": [0, 1],
			"dtype": "int32"
		}, {
			"name": "PartitionedCall/Cast_7",
			"shape": [1],
			"dtype": "int32"
		}, {
			"name": "PartitionedCall/GatherV2_7",
			"shape": [0],
			"dtype": "int32"
		}, {
			"name": "PartitionedCall/zeros_7",
			"shape": [],
			"dtype": "int32"
		}, {
			"name": "PartitionedCall/transpose_54/perm",
			"shape": [4],
			"dtype": "int32"
		}, {
			"name": "PartitionedCall/split_23",
			"shape": [1, 1, 116, 116],
			"dtype": "float32"
		}, {
			"name": "unknown_36",
			"shape": [116],
			"dtype": "float32"
		}, {
			"name": "PartitionedCall/transpose_55/perm",
			"shape": [4],
			"dtype": "int32"
		}, {
			"name": "PartitionedCall/Const_42",
			"shape": [4, 2],
			"dtype": "int32"
		}, {
			"name": "PartitionedCall/transpose_57/perm",
			"shape": [4],
			"dtype": "int32"
		}, {
			"name": "ConstantFolding/PartitionedCall/split_24-folded-115",
			"shape": [3, 3, 1, 1],
			"dtype": "float32"
		}, {
			"name": "PartitionedCall/concat_18/axis",
			"shape": [],
			"dtype": "int32"
		}, {
			"name": "unknown_38",
			"shape": [116],
			"dtype": "float32"
		}, {
			"name": "PartitionedCall/split_26",
			"shape": [1, 1, 116, 116],
			"dtype": "float32"
		}, {
			"name": "unknown_40",
			"shape": [116],
			"dtype": "float32"
		}, {
			"name": "PartitionedCall/transpose_61/perm",
			"shape": [4],
			"dtype": "int32"
		}, {
			"name": "PartitionedCall/onnx_tf_prefix_Concat_61/axis",
			"shape": [],
			"dtype": "int32"
		}, {
			"name": "PartitionedCall/Where_8",
			"shape": [0, 1],
			"dtype": "int32"
		}, {
			"name": "PartitionedCall/Cast_8",
			"shape": [1],
			"dtype": "int32"
		}, {
			"name": "PartitionedCall/GatherV2_8",
			"shape": [0],
			"dtype": "int32"
		}, {
			"name": "PartitionedCall/zeros_8",
			"shape": [],
			"dtype": "int32"
		}, {
			"name": "PartitionedCall/onnx_tf_prefix_Transpose_64/perm",
			"shape": [5],
			"dtype": "int32"
		}, {
			"name": "PartitionedCall/Where_9",
			"shape": [0, 1],
			"dtype": "int32"
		}, {
			"name": "PartitionedCall/Cast_9",
			"shape": [1],
			"dtype": "int32"
		}, {
			"name": "PartitionedCall/GatherV2_9",
			"shape": [0],
			"dtype": "int32"
		}, {
			"name": "PartitionedCall/zeros_9",
			"shape": [],
			"dtype": "int32"
		}, {
			"name": "PartitionedCall/Const_48",
			"shape": [2],
			"dtype": "int32"
		}, {
			"name": "PartitionedCall/onnx_tf_prefix_Split_67/split_dim",
			"shape": [],
			"dtype": "int32"
		}, {
			"name": "PartitionedCall/transpose_63/perm",
			"shape": [4],
			"dtype": "int32"
		}, {
			"name": "PartitionedCall/split_27",
			"shape": [1, 1, 116, 116],
			"dtype": "float32"
		}, {
			"name": "unknown_44",
			"shape": [116],
			"dtype": "float32"
		}, {
			"name": "PartitionedCall/transpose_64/perm",
			"shape": [4],
			"dtype": "int32"
		}, {
			"name": "PartitionedCall/Const_50",
			"shape": [4, 2],
			"dtype": "int32"
		}, {
			"name": "PartitionedCall/transpose_66/perm",
			"shape": [4],
			"dtype": "int32"
		}, {
			"name": "ConstantFolding/PartitionedCall/split_28-folded-115",
			"shape": [3, 3, 1, 1],
			"dtype": "float32"
		}, {
			"name": "PartitionedCall/concat_21/axis",
			"shape": [],
			"dtype": "int32"
		}, {
			"name": "unknown_46",
			"shape": [116],
			"dtype": "float32"
		}, {
			"name": "PartitionedCall/split_30",
			"shape": [1, 1, 116, 116],
			"dtype": "float32"
		}, {
			"name": "unknown_48",
			"shape": [116],
			"dtype": "float32"
		}, {
			"name": "PartitionedCall/transpose_70/perm",
			"shape": [4],
			"dtype": "int32"
		}, {
			"name": "PartitionedCall/onnx_tf_prefix_Concat_73/axis",
			"shape": [],
			"dtype": "int32"
		}, {
			"name": "PartitionedCall/Where_10",
			"shape": [0, 1],
			"dtype": "int32"
		}, {
			"name": "PartitionedCall/Cast_10",
			"shape": [1],
			"dtype": "int32"
		}, {
			"name": "PartitionedCall/GatherV2_10",
			"shape": [0],
			"dtype": "int32"
		}, {
			"name": "PartitionedCall/zeros_10",
			"shape": [],
			"dtype": "int32"
		}, {
			"name": "PartitionedCall/onnx_tf_prefix_Transpose_76/perm",
			"shape": [5],
			"dtype": "int32"
		}, {
			"name": "PartitionedCall/Where_11",
			"shape": [0, 1],
			"dtype": "int32"
		}, {
			"name": "PartitionedCall/Cast_11",
			"shape": [1],
			"dtype": "int32"
		}, {
			"name": "PartitionedCall/GatherV2_11",
			"shape": [0],
			"dtype": "int32"
		}, {
			"name": "PartitionedCall/zeros_11",
			"shape": [],
			"dtype": "int32"
		}, {
			"name": "PartitionedCall/Const_56",
			"shape": [2],
			"dtype": "int32"
		}, {
			"name": "PartitionedCall/onnx_tf_prefix_Split_79/split_dim",
			"shape": [],
			"dtype": "int32"
		}, {
			"name": "PartitionedCall/transpose_72/perm",
			"shape": [4],
			"dtype": "int32"
		}, {
			"name": "PartitionedCall/split_31",
			"shape": [1, 1, 116, 116],
			"dtype": "float32"
		}, {
			"name": "unknown_50",
			"shape": [116],
			"dtype": "float32"
		}, {
			"name": "PartitionedCall/transpose_73/perm",
			"shape": [4],
			"dtype": "int32"
		}, {
			"name": "PartitionedCall/Const_58",
			"shape": [4, 2],
			"dtype": "int32"
		}, {
			"name": "PartitionedCall/transpose_75/perm",
			"shape": [4],
			"dtype": "int32"
		}, {
			"name": "ConstantFolding/PartitionedCall/split_32-folded-115",
			"shape": [3, 3, 1, 1],
			"dtype": "float32"
		}, {
			"name": "PartitionedCall/concat_24/axis",
			"shape": [],
			"dtype": "int32"
		}, {
			"name": "unknown_52",
			"shape": [116],
			"dtype": "float32"
		}, {
			"name": "PartitionedCall/split_34",
			"shape": [1, 1, 116, 116],
			"dtype": "float32"
		}, {
			"name": "unknown_54",
			"shape": [116],
			"dtype": "float32"
		}, {
			"name": "PartitionedCall/transpose_79/perm",
			"shape": [4],
			"dtype": "int32"
		}, {
			"name": "PartitionedCall/onnx_tf_prefix_Concat_85/axis",
			"shape": [],
			"dtype": "int32"
		}, {
			"name": "PartitionedCall/Where_12",
			"shape": [0, 1],
			"dtype": "int32"
		}, {
			"name": "PartitionedCall/Cast_12",
			"shape": [1],
			"dtype": "int32"
		}, {
			"name": "PartitionedCall/GatherV2_12",
			"shape": [0],
			"dtype": "int32"
		}, {
			"name": "PartitionedCall/zeros_12",
			"shape": [],
			"dtype": "int32"
		}, {
			"name": "PartitionedCall/onnx_tf_prefix_Transpose_88/perm",
			"shape": [5],
			"dtype": "int32"
		}, {
			"name": "PartitionedCall/Where_13",
			"shape": [0, 1],
			"dtype": "int32"
		}, {
			"name": "PartitionedCall/Cast_13",
			"shape": [1],
			"dtype": "int32"
		}, {
			"name": "PartitionedCall/GatherV2_13",
			"shape": [0],
			"dtype": "int32"
		}, {
			"name": "PartitionedCall/zeros_13",
			"shape": [],
			"dtype": "int32"
		}, {
			"name": "PartitionedCall/Const_64",
			"shape": [2],
			"dtype": "int32"
		}, {
			"name": "PartitionedCall/onnx_tf_prefix_Split_91/split_dim",
			"shape": [],
			"dtype": "int32"
		}, {
			"name": "PartitionedCall/transpose_81/perm",
			"shape": [4],
			"dtype": "int32"
		}, {
			"name": "PartitionedCall/split_35",
			"shape": [1, 1, 116, 116],
			"dtype": "float32"
		}, {
			"name": "unknown_56",
			"shape": [116],
			"dtype": "float32"
		}, {
			"name": "PartitionedCall/transpose_82/perm",
			"shape": [4],
			"dtype": "int32"
		}, {
			"name": "PartitionedCall/Const_66",
			"shape": [4, 2],
			"dtype": "int32"
		}, {
			"name": "PartitionedCall/transpose_84/perm",
			"shape": [4],
			"dtype": "int32"
		}, {
			"name": "ConstantFolding/PartitionedCall/split_36-folded-115",
			"shape": [3, 3, 1, 1],
			"dtype": "float32"
		}, {
			"name": "PartitionedCall/concat_27/axis",
			"shape": [],
			"dtype": "int32"
		}, {
			"name": "unknown_58",
			"shape": [116],
			"dtype": "float32"
		}, {
			"name": "PartitionedCall/split_38",
			"shape": [1, 1, 116, 116],
			"dtype": "float32"
		}, {
			"name": "unknown_60",
			"shape": [116],
			"dtype": "float32"
		}, {
			"name": "PartitionedCall/transpose_88/perm",
			"shape": [4],
			"dtype": "int32"
		}, {
			"name": "PartitionedCall/onnx_tf_prefix_Concat_97/axis",
			"shape": [],
			"dtype": "int32"
		}, {
			"name": "PartitionedCall/Where_14",
			"shape": [0, 1],
			"dtype": "int32"
		}, {
			"name": "PartitionedCall/Cast_14",
			"shape": [1],
			"dtype": "int32"
		}, {
			"name": "PartitionedCall/GatherV2_14",
			"shape": [0],
			"dtype": "int32"
		}, {
			"name": "PartitionedCall/zeros_14",
			"shape": [],
			"dtype": "int32"
		}, {
			"name": "PartitionedCall/onnx_tf_prefix_Transpose_100/perm",
			"shape": [5],
			"dtype": "int32"
		}, {
			"name": "PartitionedCall/Where_15",
			"shape": [0, 1],
			"dtype": "int32"
		}, {
			"name": "PartitionedCall/Cast_15",
			"shape": [1],
			"dtype": "int32"
		}, {
			"name": "PartitionedCall/GatherV2_15",
			"shape": [0],
			"dtype": "int32"
		}, {
			"name": "PartitionedCall/zeros_15",
			"shape": [],
			"dtype": "int32"
		}, {
			"name": "PartitionedCall/Const_72",
			"shape": [2],
			"dtype": "int32"
		}, {
			"name": "PartitionedCall/onnx_tf_prefix_Split_103/split_dim",
			"shape": [],
			"dtype": "int32"
		}, {
			"name": "PartitionedCall/transpose_90/perm",
			"shape": [4],
			"dtype": "int32"
		}, {
			"name": "PartitionedCall/split_39",
			"shape": [1, 1, 116, 116],
			"dtype": "float32"
		}, {
			"name": "unknown_62",
			"shape": [116],
			"dtype": "float32"
		}, {
			"name": "PartitionedCall/transpose_91/perm",
			"shape": [4],
			"dtype": "int32"
		}, {
			"name": "PartitionedCall/Const_74",
			"shape": [4, 2],
			"dtype": "int32"
		}, {
			"name": "PartitionedCall/transpose_93/perm",
			"shape": [4],
			"dtype": "int32"
		}, {
			"name": "ConstantFolding/PartitionedCall/split_40-folded-115",
			"shape": [3, 3, 1, 1],
			"dtype": "float32"
		}, {
			"name": "PartitionedCall/concat_30/axis",
			"shape": [],
			"dtype": "int32"
		}, {
			"name": "unknown_64",
			"shape": [116],
			"dtype": "float32"
		}, {
			"name": "PartitionedCall/split_42",
			"shape": [1, 1, 116, 116],
			"dtype": "float32"
		}, {
			"name": "unknown_66",
			"shape": [116],
			"dtype": "float32"
		}, {
			"name": "PartitionedCall/transpose_97/perm",
			"shape": [4],
			"dtype": "int32"
		}, {
			"name": "PartitionedCall/onnx_tf_prefix_Concat_109/axis",
			"shape": [],
			"dtype": "int32"
		}, {
			"name": "PartitionedCall/Where_16",
			"shape": [0, 1],
			"dtype": "int32"
		}, {
			"name": "PartitionedCall/Cast_16",
			"shape": [1],
			"dtype": "int32"
		}, {
			"name": "PartitionedCall/GatherV2_16",
			"shape": [0],
			"dtype": "int32"
		}, {
			"name": "PartitionedCall/zeros_16",
			"shape": [],
			"dtype": "int32"
		}, {
			"name": "PartitionedCall/onnx_tf_prefix_Transpose_112/perm",
			"shape": [5],
			"dtype": "int32"
		}, {
			"name": "PartitionedCall/Where_17",
			"shape": [0, 1],
			"dtype": "int32"
		}, {
			"name": "PartitionedCall/Cast_17",
			"shape": [1],
			"dtype": "int32"
		}, {
			"name": "PartitionedCall/GatherV2_17",
			"shape": [0],
			"dtype": "int32"
		}, {
			"name": "PartitionedCall/zeros_17",
			"shape": [],
			"dtype": "int32"
		}, {
			"name": "PartitionedCall/Const_80",
			"shape": [2],
			"dtype": "int32"
		}, {
			"name": "PartitionedCall/onnx_tf_prefix_Split_115/split_dim",
			"shape": [],
			"dtype": "int32"
		}, {
			"name": "PartitionedCall/transpose_99/perm",
			"shape": [4],
			"dtype": "int32"
		}, {
			"name": "PartitionedCall/split_43",
			"shape": [1, 1, 116, 116],
			"dtype": "float32"
		}, {
			"name": "unknown_68",
			"shape": [116],
			"dtype": "float32"
		}, {
			"name": "PartitionedCall/transpose_100/perm",
			"shape": [4],
			"dtype": "int32"
		}, {
			"name": "PartitionedCall/Const_82",
			"shape": [4, 2],
			"dtype": "int32"
		}, {
			"name": "PartitionedCall/transpose_102/perm",
			"shape": [4],
			"dtype": "int32"
		}, {
			"name": "ConstantFolding/PartitionedCall/split_44-folded-115",
			"shape": [3, 3, 1, 1],
			"dtype": "float32"
		}, {
			"name": "PartitionedCall/concat_33/axis",
			"shape": [],
			"dtype": "int32"
		}, {
			"name": "unknown_70",
			"shape": [116],
			"dtype": "float32"
		}, {
			"name": "PartitionedCall/split_46",
			"shape": [1, 1, 116, 116],
			"dtype": "float32"
		}, {
			"name": "unknown_72",
			"shape": [116],
			"dtype": "float32"
		}, {
			"name": "PartitionedCall/transpose_106/perm",
			"shape": [4],
			"dtype": "int32"
		}, {
			"name": "PartitionedCall/onnx_tf_prefix_Concat_121/axis",
			"shape": [],
			"dtype": "int32"
		}, {
			"name": "PartitionedCall/Where_18",
			"shape": [0, 1],
			"dtype": "int32"
		}, {
			"name": "PartitionedCall/Cast_18",
			"shape": [1],
			"dtype": "int32"
		}, {
			"name": "PartitionedCall/GatherV2_18",
			"shape": [0],
			"dtype": "int32"
		}, {
			"name": "PartitionedCall/zeros_18",
			"shape": [],
			"dtype": "int32"
		}, {
			"name": "PartitionedCall/onnx_tf_prefix_Transpose_124/perm",
			"shape": [5],
			"dtype": "int32"
		}, {
			"name": "PartitionedCall/Where_19",
			"shape": [0, 1],
			"dtype": "int32"
		}, {
			"name": "PartitionedCall/Cast_19",
			"shape": [1],
			"dtype": "int32"
		}, {
			"name": "PartitionedCall/GatherV2_19",
			"shape": [0],
			"dtype": "int32"
		}, {
			"name": "PartitionedCall/zeros_19",
			"shape": [],
			"dtype": "int32"
		}, {
			"name": "PartitionedCall/Const_88",
			"shape": [2],
			"dtype": "int32"
		}, {
			"name": "PartitionedCall/onnx_tf_prefix_Split_127/split_dim",
			"shape": [],
			"dtype": "int32"
		}, {
			"name": "PartitionedCall/transpose_108/perm",
			"shape": [4],
			"dtype": "int32"
		}, {
			"name": "PartitionedCall/split_47",
			"shape": [1, 1, 116, 116],
			"dtype": "float32"
		}, {
			"name": "unknown_74",
			"shape": [116],
			"dtype": "float32"
		}, {
			"name": "PartitionedCall/transpose_109/perm",
			"shape": [4],
			"dtype": "int32"
		}, {
			"name": "PartitionedCall/Const_90",
			"shape": [4, 2],
			"dtype": "int32"
		}, {
			"name": "PartitionedCall/transpose_111/perm",
			"shape": [4],
			"dtype": "int32"
		}, {
			"name": "ConstantFolding/PartitionedCall/split_48-folded-115",
			"shape": [3, 3, 1, 1],
			"dtype": "float32"
		}, {
			"name": "PartitionedCall/concat_36/axis",
			"shape": [],
			"dtype": "int32"
		}, {
			"name": "unknown_76",
			"shape": [116],
			"dtype": "float32"
		}, {
			"name": "PartitionedCall/split_50",
			"shape": [1, 1, 116, 116],
			"dtype": "float32"
		}, {
			"name": "unknown_78",
			"shape": [116],
			"dtype": "float32"
		}, {
			"name": "PartitionedCall/transpose_115/perm",
			"shape": [4],
			"dtype": "int32"
		}, {
			"name": "PartitionedCall/onnx_tf_prefix_Concat_133/axis",
			"shape": [],
			"dtype": "int32"
		}, {
			"name": "PartitionedCall/Where_20",
			"shape": [0, 1],
			"dtype": "int32"
		}, {
			"name": "PartitionedCall/Cast_20",
			"shape": [1],
			"dtype": "int32"
		}, {
			"name": "PartitionedCall/GatherV2_20",
			"shape": [0],
			"dtype": "int32"
		}, {
			"name": "PartitionedCall/zeros_20",
			"shape": [],
			"dtype": "int32"
		}, {
			"name": "PartitionedCall/onnx_tf_prefix_Transpose_136/perm",
			"shape": [5],
			"dtype": "int32"
		}, {
			"name": "PartitionedCall/Where_21",
			"shape": [0, 1],
			"dtype": "int32"
		}, {
			"name": "PartitionedCall/Cast_21",
			"shape": [1],
			"dtype": "int32"
		}, {
			"name": "PartitionedCall/GatherV2_21",
			"shape": [0],
			"dtype": "int32"
		}, {
			"name": "PartitionedCall/zeros_21",
			"shape": [],
			"dtype": "int32"
		}, {
			"name": "PartitionedCall/Const_96",
			"shape": [2],
			"dtype": "int32"
		}, {
			"name": "PartitionedCall/onnx_tf_prefix_Split_139/split_dim",
			"shape": [],
			"dtype": "int32"
		}, {
			"name": "PartitionedCall/transpose_117/perm",
			"shape": [4],
			"dtype": "int32"
		}, {
			"name": "PartitionedCall/split_51",
			"shape": [1, 1, 116, 116],
			"dtype": "float32"
		}, {
			"name": "unknown_80",
			"shape": [116],
			"dtype": "float32"
		}, {
			"name": "PartitionedCall/transpose_118/perm",
			"shape": [4],
			"dtype": "int32"
		}, {
			"name": "PartitionedCall/Const_98",
			"shape": [4, 2],
			"dtype": "int32"
		}, {
			"name": "PartitionedCall/transpose_120/perm",
			"shape": [4],
			"dtype": "int32"
		}, {
			"name": "ConstantFolding/PartitionedCall/split_52-folded-115",
			"shape": [3, 3, 1, 1],
			"dtype": "float32"
		}, {
			"name": "PartitionedCall/concat_39/axis",
			"shape": [],
			"dtype": "int32"
		}, {
			"name": "unknown_82",
			"shape": [116],
			"dtype": "float32"
		}, {
			"name": "PartitionedCall/split_54",
			"shape": [1, 1, 116, 116],
			"dtype": "float32"
		}, {
			"name": "unknown_84",
			"shape": [116],
			"dtype": "float32"
		}, {
			"name": "PartitionedCall/transpose_124/perm",
			"shape": [4],
			"dtype": "int32"
		}, {
			"name": "PartitionedCall/onnx_tf_prefix_Concat_145/axis",
			"shape": [],
			"dtype": "int32"
		}, {
			"name": "unknown_41",
			"shape": [5],
			"dtype": "int32"
		}, {
			"name": "PartitionedCall/Where_22",
			"shape": [0, 1],
			"dtype": "int32"
		}, {
			"name": "PartitionedCall/Cast_22",
			"shape": [1],
			"dtype": "int32"
		}, {
			"name": "PartitionedCall/GatherV2_22",
			"shape": [0],
			"dtype": "int32"
		}, {
			"name": "PartitionedCall/zeros_22",
			"shape": [],
			"dtype": "int32"
		}, {
			"name": "PartitionedCall/onnx_tf_prefix_Transpose_148/perm",
			"shape": [5],
			"dtype": "int32"
		}, {
			"name": "unknown_42",
			"shape": [4],
			"dtype": "int32"
		}, {
			"name": "PartitionedCall/Where_23",
			"shape": [0, 1],
			"dtype": "int32"
		}, {
			"name": "PartitionedCall/Cast_23",
			"shape": [1],
			"dtype": "int32"
		}, {
			"name": "PartitionedCall/GatherV2_23",
			"shape": [0],
			"dtype": "int32"
		}, {
			"name": "PartitionedCall/zeros_23",
			"shape": [],
			"dtype": "int32"
		}, {
			"name": "PartitionedCall/transpose_132/perm",
			"shape": [4],
			"dtype": "int32"
		}, {
			"name": "PartitionedCall/split_58",
			"shape": [1, 1, 232, 232],
			"dtype": "float32"
		}, {
			"name": "unknown_90",
			"shape": [232],
			"dtype": "float32"
		}, {
			"name": "PartitionedCall/transpose_133/perm",
			"shape": [4],
			"dtype": "int32"
		}, {
			"name": "PartitionedCall/Const_109",
			"shape": [4, 2],
			"dtype": "int32"
		}, {
			"name": "PartitionedCall/transpose_135/perm",
			"shape": [4],
			"dtype": "int32"
		}, {
			"name": "ConstantFolding/PartitionedCall/split_59-folded-231",
			"shape": [3, 3, 1, 1],
			"dtype": "float32"
		}, {
			"name": "PartitionedCall/concat_44/axis",
			"shape": [],
			"dtype": "int32"
		}, {
			"name": "unknown_92",
			"shape": [232],
			"dtype": "float32"
		}, {
			"name": "PartitionedCall/split_61",
			"shape": [1, 1, 232, 232],
			"dtype": "float32"
		}, {
			"name": "unknown_94",
			"shape": [232],
			"dtype": "float32"
		}, {
			"name": "PartitionedCall/transpose_139/perm",
			"shape": [4],
			"dtype": "int32"
		}, {
			"name": "PartitionedCall/onnx_tf_prefix_Concat_159/axis",
			"shape": [],
			"dtype": "int32"
		}, {
			"name": "PartitionedCall/Where_24",
			"shape": [0, 1],
			"dtype": "int32"
		}, {
			"name": "PartitionedCall/Cast_24",
			"shape": [1],
			"dtype": "int32"
		}, {
			"name": "PartitionedCall/GatherV2_24",
			"shape": [0],
			"dtype": "int32"
		}, {
			"name": "PartitionedCall/zeros_24",
			"shape": [],
			"dtype": "int32"
		}, {
			"name": "PartitionedCall/onnx_tf_prefix_Transpose_162/perm",
			"shape": [5],
			"dtype": "int32"
		}, {
			"name": "PartitionedCall/Where_25",
			"shape": [0, 1],
			"dtype": "int32"
		}, {
			"name": "PartitionedCall/Cast_25",
			"shape": [1],
			"dtype": "int32"
		}, {
			"name": "PartitionedCall/GatherV2_25",
			"shape": [0],
			"dtype": "int32"
		}, {
			"name": "PartitionedCall/zeros_25",
			"shape": [],
			"dtype": "int32"
		}, {
			"name": "PartitionedCall/Const_115",
			"shape": [2],
			"dtype": "int32"
		}, {
			"name": "PartitionedCall/onnx_tf_prefix_Split_165/split_dim",
			"shape": [],
			"dtype": "int32"
		}, {
			"name": "PartitionedCall/transpose_141/perm",
			"shape": [4],
			"dtype": "int32"
		}, {
			"name": "PartitionedCall/split_62",
			"shape": [1, 1, 232, 232],
			"dtype": "float32"
		}, {
			"name": "unknown_98",
			"shape": [232],
			"dtype": "float32"
		}, {
			"name": "PartitionedCall/transpose_142/perm",
			"shape": [4],
			"dtype": "int32"
		}, {
			"name": "PartitionedCall/Const_117",
			"shape": [4, 2],
			"dtype": "int32"
		}, {
			"name": "PartitionedCall/transpose_144/perm",
			"shape": [4],
			"dtype": "int32"
		}, {
			"name": "ConstantFolding/PartitionedCall/split_63-folded-231",
			"shape": [3, 3, 1, 1],
			"dtype": "float32"
		}, {
			"name": "PartitionedCall/concat_47/axis",
			"shape": [],
			"dtype": "int32"
		}, {
			"name": "unknown_100",
			"shape": [232],
			"dtype": "float32"
		}, {
			"name": "PartitionedCall/split_65",
			"shape": [1, 1, 232, 232],
			"dtype": "float32"
		}, {
			"name": "unknown_102",
			"shape": [232],
			"dtype": "float32"
		}, {
			"name": "PartitionedCall/transpose_148/perm",
			"shape": [4],
			"dtype": "int32"
		}, {
			"name": "PartitionedCall/onnx_tf_prefix_Concat_171/axis",
			"shape": [],
			"dtype": "int32"
		}, {
			"name": "PartitionedCall/Where_26",
			"shape": [0, 1],
			"dtype": "int32"
		}, {
			"name": "PartitionedCall/Cast_26",
			"shape": [1],
			"dtype": "int32"
		}, {
			"name": "PartitionedCall/GatherV2_26",
			"shape": [0],
			"dtype": "int32"
		}, {
			"name": "PartitionedCall/zeros_26",
			"shape": [],
			"dtype": "int32"
		}, {
			"name": "PartitionedCall/onnx_tf_prefix_Transpose_174/perm",
			"shape": [5],
			"dtype": "int32"
		}, {
			"name": "PartitionedCall/Where_27",
			"shape": [0, 1],
			"dtype": "int32"
		}, {
			"name": "PartitionedCall/Cast_27",
			"shape": [1],
			"dtype": "int32"
		}, {
			"name": "PartitionedCall/GatherV2_27",
			"shape": [0],
			"dtype": "int32"
		}, {
			"name": "PartitionedCall/zeros_27",
			"shape": [],
			"dtype": "int32"
		}, {
			"name": "PartitionedCall/Const_123",
			"shape": [2],
			"dtype": "int32"
		}, {
			"name": "PartitionedCall/onnx_tf_prefix_Split_177/split_dim",
			"shape": [],
			"dtype": "int32"
		}, {
			"name": "PartitionedCall/transpose_150/perm",
			"shape": [4],
			"dtype": "int32"
		}, {
			"name": "PartitionedCall/split_66",
			"shape": [1, 1, 232, 232],
			"dtype": "float32"
		}, {
			"name": "unknown_104",
			"shape": [232],
			"dtype": "float32"
		}, {
			"name": "PartitionedCall/transpose_151/perm",
			"shape": [4],
			"dtype": "int32"
		}, {
			"name": "PartitionedCall/Const_125",
			"shape": [4, 2],
			"dtype": "int32"
		}, {
			"name": "PartitionedCall/transpose_153/perm",
			"shape": [4],
			"dtype": "int32"
		}, {
			"name": "ConstantFolding/PartitionedCall/split_67-folded-231",
			"shape": [3, 3, 1, 1],
			"dtype": "float32"
		}, {
			"name": "PartitionedCall/concat_50/axis",
			"shape": [],
			"dtype": "int32"
		}, {
			"name": "unknown_106",
			"shape": [232],
			"dtype": "float32"
		}, {
			"name": "PartitionedCall/split_69",
			"shape": [1, 1, 232, 232],
			"dtype": "float32"
		}, {
			"name": "unknown_108",
			"shape": [232],
			"dtype": "float32"
		}, {
			"name": "PartitionedCall/transpose_157/perm",
			"shape": [4],
			"dtype": "int32"
		}, {
			"name": "PartitionedCall/onnx_tf_prefix_Concat_183/axis",
			"shape": [],
			"dtype": "int32"
		}, {
			"name": "PartitionedCall/Where_28",
			"shape": [0, 1],
			"dtype": "int32"
		}, {
			"name": "PartitionedCall/Cast_28",
			"shape": [1],
			"dtype": "int32"
		}, {
			"name": "PartitionedCall/GatherV2_28",
			"shape": [0],
			"dtype": "int32"
		}, {
			"name": "PartitionedCall/zeros_28",
			"shape": [],
			"dtype": "int32"
		}, {
			"name": "PartitionedCall/onnx_tf_prefix_Transpose_186/perm",
			"shape": [5],
			"dtype": "int32"
		}, {
			"name": "PartitionedCall/Where_29",
			"shape": [0, 1],
			"dtype": "int32"
		}, {
			"name": "PartitionedCall/Cast_29",
			"shape": [1],
			"dtype": "int32"
		}, {
			"name": "PartitionedCall/GatherV2_29",
			"shape": [0],
			"dtype": "int32"
		}, {
			"name": "PartitionedCall/zeros_29",
			"shape": [],
			"dtype": "int32"
		}, {
			"name": "PartitionedCall/Const_131",
			"shape": [2],
			"dtype": "int32"
		}, {
			"name": "PartitionedCall/onnx_tf_prefix_Split_189/split_dim",
			"shape": [],
			"dtype": "int32"
		}, {
			"name": "PartitionedCall/transpose_159/perm",
			"shape": [4],
			"dtype": "int32"
		}, {
			"name": "PartitionedCall/split_70",
			"shape": [1, 1, 232, 232],
			"dtype": "float32"
		}, {
			"name": "unknown_110",
			"shape": [232],
			"dtype": "float32"
		}, {
			"name": "PartitionedCall/transpose_160/perm",
			"shape": [4],
			"dtype": "int32"
		}, {
			"name": "PartitionedCall/Const_133",
			"shape": [4, 2],
			"dtype": "int32"
		}, {
			"name": "PartitionedCall/transpose_162/perm",
			"shape": [4],
			"dtype": "int32"
		}, {
			"name": "ConstantFolding/PartitionedCall/split_71-folded-231",
			"shape": [3, 3, 1, 1],
			"dtype": "float32"
		}, {
			"name": "PartitionedCall/concat_53/axis",
			"shape": [],
			"dtype": "int32"
		}, {
			"name": "unknown_112",
			"shape": [232],
			"dtype": "float32"
		}, {
			"name": "PartitionedCall/split_73",
			"shape": [1, 1, 232, 232],
			"dtype": "float32"
		}, {
			"name": "unknown_114",
			"shape": [232],
			"dtype": "float32"
		}, {
			"name": "PartitionedCall/transpose_166/perm",
			"shape": [4],
			"dtype": "int32"
		}, {
			"name": "PartitionedCall/onnx_tf_prefix_Concat_195/axis",
			"shape": [],
			"dtype": "int32"
		}, {
			"name": "unknown_95",
			"shape": [5],
			"dtype": "int32"
		}, {
			"name": "PartitionedCall/Where_30",
			"shape": [0, 1],
			"dtype": "int32"
		}, {
			"name": "PartitionedCall/Cast_30",
			"shape": [1],
			"dtype": "int32"
		}, {
			"name": "PartitionedCall/GatherV2_30",
			"shape": [0],
			"dtype": "int32"
		}, {
			"name": "PartitionedCall/zeros_30",
			"shape": [],
			"dtype": "int32"
		}, {
			"name": "PartitionedCall/onnx_tf_prefix_Transpose_198/perm",
			"shape": [5],
			"dtype": "int32"
		}, {
			"name": "unknown_96",
			"shape": [4],
			"dtype": "int32"
		}, {
			"name": "PartitionedCall/Where_31",
			"shape": [0, 1],
			"dtype": "int32"
		}, {
			"name": "PartitionedCall/Cast_31",
			"shape": [1],
			"dtype": "int32"
		}, {
			"name": "PartitionedCall/GatherV2_31",
			"shape": [0],
			"dtype": "int32"
		}, {
			"name": "PartitionedCall/zeros_31",
			"shape": [],
			"dtype": "int32"
		}, {
			"name": "PartitionedCall/transpose_174/perm",
			"shape": [4],
			"dtype": "int32"
		}, {
			"name": "PartitionedCall/split_76",
			"shape": [1, 1, 464, 96],
			"dtype": "float32"
		}, {
			"name": "unknown_120",
			"shape": [96],
			"dtype": "float32"
		}, {
			"name": "PartitionedCall/Cast_33",
			"shape": [2],
			"dtype": "int32"
		}, {
			"name": "PartitionedCall/transpose_177/perm",
			"shape": [4],
			"dtype": "int32"
		}, {
			"name": "PartitionedCall/transpose_178/perm",
			"shape": [4],
			"dtype": "int32"
		}, {
			"name": "PartitionedCall/Cast_35",
			"shape": [2],
			"dtype": "int32"
		}, {
			"name": "PartitionedCall/transpose_179/perm",
			"shape": [4],
			"dtype": "int32"
		}, {
			"name": "PartitionedCall/transpose_180/perm",
			"shape": [4],
			"dtype": "int32"
		}, {
			"name": "PartitionedCall/Cast_37",
			"shape": [2],
			"dtype": "int32"
		}, {
			"name": "PartitionedCall/transpose_181/perm",
			"shape": [4],
			"dtype": "int32"
		}, {
			"name": "PartitionedCall/transpose_182/perm",
			"shape": [4],
			"dtype": "int32"
		}, {
			"name": "PartitionedCall/Cast_39",
			"shape": [2],
			"dtype": "int32"
		}, {
			"name": "PartitionedCall/transpose_183/perm",
			"shape": [4],
			"dtype": "int32"
		}, {
			"name": "PartitionedCall/Const_166",
			"shape": [4, 2],
			"dtype": "int32"
		}, {
			"name": "PartitionedCall/transpose_215/perm",
			"shape": [4],
			"dtype": "int32"
		}, {
			"name": "ConstantFolding/PartitionedCall/split_91-folded-95",
			"shape": [3, 3, 1, 1],
			"dtype": "float32"
		}, {
			"name": "PartitionedCall/concat_68/axis",
			"shape": [],
			"dtype": "int32"
		}, {
			"name": "unknown_148",
			"shape": [96],
			"dtype": "float32"
		}, {
			"name": "PartitionedCall/transpose_216/perm",
			"shape": [4],
			"dtype": "int32"
		}, {
			"name": "PartitionedCall/transpose_218/perm",
			"shape": [4],
			"dtype": "int32"
		}, {
			"name": "PartitionedCall/split_93",
			"shape": [1, 1, 96, 96],
			"dtype": "float32"
		}, {
			"name": "unknown_150",
			"shape": [96],
			"dtype": "float32"
		}, {
			"name": "PartitionedCall/transpose_219/perm",
			"shape": [4],
			"dtype": "int32"
		}, {
			"name": "PartitionedCall/Const_170",
			"shape": [4, 2],
			"dtype": "int32"
		}, {
			"name": "PartitionedCall/transpose_221/perm",
			"shape": [4],
			"dtype": "int32"
		}, {
			"name": "ConstantFolding/PartitionedCall/split_94-folded-95",
			"shape": [3, 3, 1, 1],
			"dtype": "float32"
		}, {
			"name": "PartitionedCall/concat_70/axis",
			"shape": [],
			"dtype": "int32"
		}, {
			"name": "unknown_152",
			"shape": [96],
			"dtype": "float32"
		}, {
			"name": "PartitionedCall/transpose_222/perm",
			"shape": [4],
			"dtype": "int32"
		}, {
			"name": "PartitionedCall/transpose_224/perm",
			"shape": [4],
			"dtype": "int32"
		}, {
			"name": "PartitionedCall/split_96",
			"shape": [1, 1, 96, 96],
			"dtype": "float32"
		}, {
			"name": "unknown_154",
			"shape": [96],
			"dtype": "float32"
		}, {
			"name": "PartitionedCall/transpose_225/perm",
			"shape": [4],
			"dtype": "int32"
		}, {
			"name": "PartitionedCall/transpose_227/perm",
			"shape": [4],
			"dtype": "int32"
		}, {
			"name": "PartitionedCall/split_97",
			"shape": [1, 1, 96, 33],
			"dtype": "float32"
		}, {
			"name": "unknown_156",
			"shape": [33],
			"dtype": "float32"
		}, {
			"name": "PartitionedCall/transpose_228/perm",
			"shape": [4],
			"dtype": "int32"
		}, {
			"name": "PartitionedCall/Const_175",
			"shape": [2],
			"dtype": "int32"
		}, {
			"name": "PartitionedCall/onnx_tf_prefix_Split_331/split_dim",
			"shape": [],
			"dtype": "int32"
		}, {
			"name": "unknown_136",
			"shape": [3],
			"dtype": "int32"
		}, {
			"name": "PartitionedCall/Where_37",
			"shape": [0, 1],
			"dtype": "int32"
		}, {
			"name": "PartitionedCall/Cast_45",
			"shape": [1],
			"dtype": "int32"
		}, {
			"name": "PartitionedCall/GatherV2_37",
			"shape": [0],
			"dtype": "int32"
		}, {
			"name": "PartitionedCall/zeros_37",
			"shape": [],
			"dtype": "int32"
		}, {
			"name": "PartitionedCall/onnx_tf_prefix_Transpose_338/perm",
			"shape": [3],
			"dtype": "int32"
		}]
	}]
}
